Neural Network Tools for STM32 family v1.7.0 (stm.ai v8.1.0-19520)
Created date          : 2024-06-29 10:04:50
Parameters            : generate --name network_1 -m D:/linux/MobileFaceNet_Pytorch/mobilefacenet_quantized1.onnx --type onnx --compression none --verbosity 1 --workspace C:\Users\19178\AppData\Local\Temp\mxAI_workspace8400994155280011381974596942859515 --output C:\Users\19178\.stm32cubemx\network_output --allocate-inputs --series stm32h7 -O ram --allocate-outputs

Exec/report summary (generate)
------------------------------------------------------------------------------------------------------------
model file         :   D:\linux\MobileFaceNet_Pytorch\mobilefacenet_quantized1.onnx                         
type               :   onnx                                                                                 
c_name             :   network_1                                                                            
compression        :   none                                                                                 
options            :   allocate-inputs, allocate-outputs                                                    
optimization       :   ram                                                                                  
target/series      :   stm32h7                                                                              
workspace dir      :   C:\Users\19178\AppData\Local\Temp\mxAI_workspace8400994155280011381974596942859515   
output dir         :   C:\Users\19178\.stm32cubemx\network_output                                           
model_fmt          :   ss/sa per channel                                                                    
model_name         :   mobilefacenet_quantized1                                                             
model_hash         :   b055b2a572dbfb35b844655343cb62d4                                                     
params #           :   989,760 items (3.78 MiB)                                                             
------------------------------------------------------------------------------------------------------------
input 1/1          :   'input' (domain:activations/**default**)                                             
                   :   32256 items, 31.50 KiB, ai_i8, s=0.00781250, zp=0, (1,3,112,96)                      
output 1/1         :   '_linear1_conv_Conv_0' (domain:activations/**default**)                              
                   :   128 items, 128 B, ai_i8, s=0.02010482, zp=-6, (1,1,1,128)                            
macc               :   194,476,864                                                                          
weights (ro)       :   1,019,136 B (995.25 KiB) (1 segment) / -2,939,904(-74.3%) vs float model             
activations (rw)   :   353,408 B (345.12 KiB) (1 segment) *                                                 
ram (total)        :   353,408 B (345.12 KiB) = 353,408 + 0 + 0                                             
------------------------------------------------------------------------------------------------------------
(*) 'input'/'output' buffers can be used from the activations buffer

Model name - mobilefacenet_quantized1 ['input'] ['_linear1_conv_Conv_0']
------ ----------------------------------------------------------------------------------------------------- ---------------------------- ---------------- ------------ ---------------------------------------------------------------------- --- ------------------- ----------------------- ----------------------------- 
m_id   layer (type,original)                                                                                 oshape                       param/size               macc                                                           connected to   | c_size              c_macc                  c_type                        
------ ----------------------------------------------------------------------------------------------------- ---------------------------- ---------------- ------------ ---------------------------------------------------------------------- --- ------------------- ----------------------- ----------------------------- 
0      input (Input, )                                                                                       [b:1,h:112,h:112,w:96,c:3]                                                                                                          |                                             
------ ----------------------------------------------------------------------------------------------------- ---------------------------- ---------------- ------------ ---------------------------------------------------------------------- --- ------------------- ----------------------- ----------------------------- 
1      input_QuantizeLinear_Output (Conversion, QuantizeLinear)                                              [b:1,h:112,h:112,w:96,c:3]                          64,512                                                                  input   |                     -64,512(-100.0%)        
------ ----------------------------------------------------------------------------------------------------- ---------------------------- ---------------- ------------ ---------------------------------------------------------------------- --- ------------------- ----------------------- ----------------------------- 
102    input_DequantizeLinear_Output (Conversion, DequantizeLinear)                                          [b:1,h:112,h:112,w:96,c:3]                          64,512                                            input_QuantizeLinear_Output   |                     -64,512(-100.0%)        
------ ----------------------------------------------------------------------------------------------------- ---------------------------- ---------------- ------------ ---------------------------------------------------------------------- --- ------------------- ----------------------- ----------------------------- 
103    _conv1_conv_Conv_output_0 (Conv2D, Conv)                                                              [b:1,h:56,h:56,w:48,c:64]    1,792/7,168         4,644,928                                          input_DequantizeLinear_Output   | -7,168(-100.0%)     -4,644,928(-100.0%)     
------ ----------------------------------------------------------------------------------------------------- ---------------------------- ---------------- ------------ ---------------------------------------------------------------------- --- ------------------- ----------------------- ----------------------------- 
104    _conv1_conv_Conv_output_0_QuantizeLinear_Output (Conversion, QuantizeLinear)                          [b:1,h:56,h:56,w:48,c:64]                          344,064                                              _conv1_conv_Conv_output_0   |                     -344,064(-100.0%)       
------ ----------------------------------------------------------------------------------------------------- ---------------------------- ---------------- ------------ ---------------------------------------------------------------------- --- ------------------- ----------------------- ----------------------------- 
105    _conv1_conv_Conv_output_0_DequantizeLinear_Output (Conversion, DequantizeLinear)                      [b:1,h:56,h:56,w:48,c:64]                          344,064                        _conv1_conv_Conv_output_0_QuantizeLinear_Output   |                     -344,064(-100.0%)       
------ ----------------------------------------------------------------------------------------------------- ---------------------------- ---------------- ------------ ---------------------------------------------------------------------- --- ------------------- ----------------------- ----------------------------- 
106    _conv1_prelu_PRelu_output_0 (Nonlinearity, PRelu)                                                     [b:1,h:56,h:56,w:48,c:64]    64/256                344,064                      _conv1_conv_Conv_output_0_DequantizeLinear_Output   | +1,792(+700.0%)     +4,644,928(+1350.0%)    conv2d_oi8[1]                 
------ ----------------------------------------------------------------------------------------------------- ---------------------------- ---------------- ------------ ---------------------------------------------------------------------- --- ------------------- ----------------------- ----------------------------- 
107    _conv1_prelu_PRelu_output_0_QuantizeLinear_Output (Conversion, QuantizeLinear)                        [b:1,h:56,h:56,w:48,c:64]                          344,064                                            _conv1_prelu_PRelu_output_0   |                     -344,064(-100.0%)       
------ ----------------------------------------------------------------------------------------------------- ---------------------------- ---------------- ------------ ---------------------------------------------------------------------- --- ------------------- ----------------------- ----------------------------- 
108    _conv1_prelu_PRelu_output_0_DequantizeLinear_Output (Conversion, DequantizeLinear)                    [b:1,h:56,h:56,w:48,c:64]                          344,064                      _conv1_prelu_PRelu_output_0_QuantizeLinear_Output   |                     -344,064(-100.0%)       
------ ----------------------------------------------------------------------------------------------------- ---------------------------- ---------------- ------------ ---------------------------------------------------------------------- --- ------------------- ----------------------- ----------------------------- 
109    _dw_conv1_conv_Conv_output_0 (Conv2D, Conv)                                                           [b:1,h:56,h:56,w:48,c:64]    640/2,560           1,548,352                    _conv1_prelu_PRelu_output_0_DequantizeLinear_Output   | -2,560(-100.0%)     -1,548,352(-100.0%)     
------ ----------------------------------------------------------------------------------------------------- ---------------------------- ---------------- ------------ ---------------------------------------------------------------------- --- ------------------- ----------------------- ----------------------------- 
110    _dw_conv1_conv_Conv_output_0_QuantizeLinear_Output (Conversion, QuantizeLinear)                       [b:1,h:56,h:56,w:48,c:64]                          344,064                                           _dw_conv1_conv_Conv_output_0   |                     -344,064(-100.0%)       
------ ----------------------------------------------------------------------------------------------------- ---------------------------- ---------------- ------------ ---------------------------------------------------------------------- --- ------------------- ----------------------- ----------------------------- 
111    _dw_conv1_conv_Conv_output_0_DequantizeLinear_Output (Conversion, DequantizeLinear)                   [b:1,h:56,h:56,w:48,c:64]                          344,064                     _dw_conv1_conv_Conv_output_0_QuantizeLinear_Output   |                     -344,064(-100.0%)       
------ ----------------------------------------------------------------------------------------------------- ---------------------------- ---------------- ------------ ---------------------------------------------------------------------- --- ------------------- ----------------------- ----------------------------- 
112    _dw_conv1_prelu_PRelu_output_0 (Nonlinearity, PRelu)                                                  [b:1,h:56,h:56,w:48,c:64]    64/256                344,064                   _dw_conv1_conv_Conv_output_0_DequantizeLinear_Output   | +640(+250.0%)       +1,548,352(+450.0%)     conv2d_oi8[2]                 
------ ----------------------------------------------------------------------------------------------------- ---------------------------- ---------------- ------------ ---------------------------------------------------------------------- --- ------------------- ----------------------- ----------------------------- 
113    _dw_conv1_prelu_PRelu_output_0_QuantizeLinear_Output (Conversion, QuantizeLinear)                     [b:1,h:56,h:56,w:48,c:64]                          344,064                                         _dw_conv1_prelu_PRelu_output_0   |                     -344,064(-100.0%)       
------ ----------------------------------------------------------------------------------------------------- ---------------------------- ---------------- ------------ ---------------------------------------------------------------------- --- ------------------- ----------------------- ----------------------------- 
114    _dw_conv1_prelu_PRelu_output_0_DequantizeLinear_Output (Conversion, DequantizeLinear)                 [b:1,h:56,h:56,w:48,c:64]                          344,064                   _dw_conv1_prelu_PRelu_output_0_QuantizeLinear_Output   |                     -344,064(-100.0%)       
------ ----------------------------------------------------------------------------------------------------- ---------------------------- ---------------- ------------ ---------------------------------------------------------------------- --- ------------------- ----------------------- ----------------------------- 
115    _blocks_blocks_0_conv_conv_0_Conv_output_0 (Conv2D, Conv)                                             [b:1,h:56,h:56,w:48,c:128]   8,320/33,280       22,020,224                 _dw_conv1_prelu_PRelu_output_0_DequantizeLinear_Output   | -33,280(-100.0%)    -22,020,224(-100.0%)    
------ ----------------------------------------------------------------------------------------------------- ---------------------------- ---------------- ------------ ---------------------------------------------------------------------- --- ------------------- ----------------------- ----------------------------- 
116    _blocks_blocks_0_conv_conv_0_Conv_output_0_QuantizeLinear_Output (Conversion, QuantizeLinear)         [b:1,h:56,h:56,w:48,c:128]                         688,128                             _blocks_blocks_0_conv_conv_0_Conv_output_0   |                     -688,128(-100.0%)       
------ ----------------------------------------------------------------------------------------------------- ---------------------------- ---------------- ------------ ---------------------------------------------------------------------- --- ------------------- ----------------------- ----------------------------- 
117    _blocks_blocks_0_conv_conv_0_Conv_output_0_DequantizeLinear_Output (Conversion, DequantizeLinear)     [b:1,h:56,h:56,w:48,c:128]                         688,128       _blocks_blocks_0_conv_conv_0_Conv_output_0_QuantizeLinear_Output   |                     -688,128(-100.0%)       
------ ----------------------------------------------------------------------------------------------------- ---------------------------- ---------------- ------------ ---------------------------------------------------------------------- --- ------------------- ----------------------- ----------------------------- 
118    _blocks_blocks_0_conv_conv_2_PRelu_output_0 (Nonlinearity, PRelu)                                     [b:1,h:56,h:56,w:48,c:128]   128/512               688,128     _blocks_blocks_0_conv_conv_0_Conv_output_0_DequantizeLinear_Output   | +8,320(+1625.0%)    +22,020,224(+3200.0%)   conv2d_oi8[3]                 
------ ----------------------------------------------------------------------------------------------------- ---------------------------- ---------------- ------------ ---------------------------------------------------------------------- --- ------------------- ----------------------- ----------------------------- 
119    _blocks_blocks_0_conv_conv_2_PRelu_output_0_QuantizeLinear_Output (Conversion, QuantizeLinear)        [b:1,h:56,h:56,w:48,c:128]                         688,128                            _blocks_blocks_0_conv_conv_2_PRelu_output_0   |                     -688,128(-100.0%)       
------ ----------------------------------------------------------------------------------------------------- ---------------------------- ---------------- ------------ ---------------------------------------------------------------------- --- ------------------- ----------------------- ----------------------------- 
120    _blocks_blocks_0_conv_conv_2_PRelu_output_0_DequantizeLinear_Output (Conversion, DequantizeLinear)    [b:1,h:56,h:56,w:48,c:128]                         688,128      _blocks_blocks_0_conv_conv_2_PRelu_output_0_QuantizeLinear_Output   |                     -688,128(-100.0%)       
------ ----------------------------------------------------------------------------------------------------- ---------------------------- ---------------- ------------ ---------------------------------------------------------------------- --- ------------------- ----------------------- ----------------------------- 
121    _blocks_blocks_0_conv_conv_3_Conv_output_0 (Conv2D, Conv)                                             [b:1,h:28,h:28,w:24,c:128]   1,280/5,120           774,272    _blocks_blocks_0_conv_conv_2_PRelu_output_0_DequantizeLinear_Output   | -5,120(-100.0%)     -774,272(-100.0%)       
------ ----------------------------------------------------------------------------------------------------- ---------------------------- ---------------- ------------ ---------------------------------------------------------------------- --- ------------------- ----------------------- ----------------------------- 
122    _blocks_blocks_0_conv_conv_3_Conv_output_0_QuantizeLinear_Output (Conversion, QuantizeLinear)         [b:1,h:28,h:28,w:24,c:128]                         172,032                             _blocks_blocks_0_conv_conv_3_Conv_output_0   |                     -172,032(-100.0%)       
------ ----------------------------------------------------------------------------------------------------- ---------------------------- ---------------- ------------ ---------------------------------------------------------------------- --- ------------------- ----------------------- ----------------------------- 
123    _blocks_blocks_0_conv_conv_3_Conv_output_0_DequantizeLinear_Output (Conversion, DequantizeLinear)     [b:1,h:28,h:28,w:24,c:128]                         172,032       _blocks_blocks_0_conv_conv_3_Conv_output_0_QuantizeLinear_Output   |                     -172,032(-100.0%)       
------ ----------------------------------------------------------------------------------------------------- ---------------------------- ---------------- ------------ ---------------------------------------------------------------------- --- ------------------- ----------------------- ----------------------------- 
124    _blocks_blocks_0_conv_conv_5_PRelu_output_0 (Nonlinearity, PRelu)                                     [b:1,h:28,h:28,w:24,c:128]   128/512               172,032     _blocks_blocks_0_conv_conv_3_Conv_output_0_DequantizeLinear_Output   | +1,280(+250.0%)     +774,272(+450.1%)       conv2d_oi8[4]                 
------ ----------------------------------------------------------------------------------------------------- ---------------------------- ---------------- ------------ ---------------------------------------------------------------------- --- ------------------- ----------------------- ----------------------------- 
125    _blocks_blocks_0_conv_conv_5_PRelu_output_0_QuantizeLinear_Output (Conversion, QuantizeLinear)        [b:1,h:28,h:28,w:24,c:128]                         172,032                            _blocks_blocks_0_conv_conv_5_PRelu_output_0   |                     -172,032(-100.0%)       
------ ----------------------------------------------------------------------------------------------------- ---------------------------- ---------------- ------------ ---------------------------------------------------------------------- --- ------------------- ----------------------- ----------------------------- 
126    _blocks_blocks_0_conv_conv_5_PRelu_output_0_DequantizeLinear_Output (Conversion, DequantizeLinear)    [b:1,h:28,h:28,w:24,c:128]                         172,032      _blocks_blocks_0_conv_conv_5_PRelu_output_0_QuantizeLinear_Output   |                     -172,032(-100.0%)       
------ ----------------------------------------------------------------------------------------------------- ---------------------------- ---------------- ------------ ---------------------------------------------------------------------- --- ------------------- ----------------------- ----------------------------- 
127    _blocks_blocks_0_conv_conv_6_Conv_output_0 (Conv2D, Conv)                                             [b:1,h:28,h:28,w:24,c:64]    8,256/33,024        5,505,088    _blocks_blocks_0_conv_conv_5_PRelu_output_0_DequantizeLinear_Output   | -24,576(-74.4%)                             conv2d_oi8[5]                 
------ ----------------------------------------------------------------------------------------------------- ---------------------------- ---------------- ------------ ---------------------------------------------------------------------- --- ------------------- ----------------------- ----------------------------- 
128    _blocks_blocks_0_conv_conv_6_Conv_output_0_QuantizeLinear_Output (Conversion, QuantizeLinear)         [b:1,h:28,h:28,w:24,c:64]                           86,016                             _blocks_blocks_0_conv_conv_6_Conv_output_0   |                     -86,016(-100.0%)        
------ ----------------------------------------------------------------------------------------------------- ---------------------------- ---------------- ------------ ---------------------------------------------------------------------- --- ------------------- ----------------------- ----------------------------- 
129    _blocks_blocks_0_conv_conv_6_Conv_output_0_DequantizeLinear_Output (Conversion, DequantizeLinear)     [b:1,h:28,h:28,w:24,c:64]                           86,016       _blocks_blocks_0_conv_conv_6_Conv_output_0_QuantizeLinear_Output   |                     -86,016(-100.0%)        
------ ----------------------------------------------------------------------------------------------------- ---------------------------- ---------------- ------------ ---------------------------------------------------------------------- --- ------------------- ----------------------- ----------------------------- 
130    _blocks_blocks_1_conv_conv_0_Conv_output_0 (Conv2D, Conv)                                             [b:1,h:28,h:28,w:24,c:128]   8,320/33,280        5,505,152     _blocks_blocks_0_conv_conv_6_Conv_output_0_DequantizeLinear_Output   | -33,280(-100.0%)    -5,505,152(-100.0%)     
------ ----------------------------------------------------------------------------------------------------- ---------------------------- ---------------- ------------ ---------------------------------------------------------------------- --- ------------------- ----------------------- ----------------------------- 
131    _blocks_blocks_1_conv_conv_0_Conv_output_0_QuantizeLinear_Output (Conversion, QuantizeLinear)         [b:1,h:28,h:28,w:24,c:128]                         172,032                             _blocks_blocks_1_conv_conv_0_Conv_output_0   |                     -172,032(-100.0%)       
------ ----------------------------------------------------------------------------------------------------- ---------------------------- ---------------- ------------ ---------------------------------------------------------------------- --- ------------------- ----------------------- ----------------------------- 
132    _blocks_blocks_1_conv_conv_0_Conv_output_0_DequantizeLinear_Output (Conversion, DequantizeLinear)     [b:1,h:28,h:28,w:24,c:128]                         172,032       _blocks_blocks_1_conv_conv_0_Conv_output_0_QuantizeLinear_Output   |                     -172,032(-100.0%)       
------ ----------------------------------------------------------------------------------------------------- ---------------------------- ---------------- ------------ ---------------------------------------------------------------------- --- ------------------- ----------------------- ----------------------------- 
133    _blocks_blocks_1_conv_conv_2_PRelu_output_0 (Nonlinearity, PRelu)                                     [b:1,h:28,h:28,w:24,c:128]   128/512               172,032     _blocks_blocks_1_conv_conv_0_Conv_output_0_DequantizeLinear_Output   | +8,320(+1625.0%)    +5,505,152(+3200.1%)    conv2d_oi8[6]                 
------ ----------------------------------------------------------------------------------------------------- ---------------------------- ---------------- ------------ ---------------------------------------------------------------------- --- ------------------- ----------------------- ----------------------------- 
134    _blocks_blocks_1_conv_conv_2_PRelu_output_0_QuantizeLinear_Output (Conversion, QuantizeLinear)        [b:1,h:28,h:28,w:24,c:128]                         172,032                            _blocks_blocks_1_conv_conv_2_PRelu_output_0   |                     -172,032(-100.0%)       
------ ----------------------------------------------------------------------------------------------------- ---------------------------- ---------------- ------------ ---------------------------------------------------------------------- --- ------------------- ----------------------- ----------------------------- 
135    _blocks_blocks_1_conv_conv_2_PRelu_output_0_DequantizeLinear_Output (Conversion, DequantizeLinear)    [b:1,h:28,h:28,w:24,c:128]                         172,032      _blocks_blocks_1_conv_conv_2_PRelu_output_0_QuantizeLinear_Output   |                     -172,032(-100.0%)       
------ ----------------------------------------------------------------------------------------------------- ---------------------------- ---------------- ------------ ---------------------------------------------------------------------- --- ------------------- ----------------------- ----------------------------- 
136    _blocks_blocks_1_conv_conv_3_Conv_output_0 (Conv2D, Conv)                                             [b:1,h:28,h:28,w:24,c:128]   1,280/5,120           774,272    _blocks_blocks_1_conv_conv_2_PRelu_output_0_DequantizeLinear_Output   | -5,120(-100.0%)     -774,272(-100.0%)       
------ ----------------------------------------------------------------------------------------------------- ---------------------------- ---------------- ------------ ---------------------------------------------------------------------- --- ------------------- ----------------------- ----------------------------- 
137    _blocks_blocks_1_conv_conv_3_Conv_output_0_QuantizeLinear_Output (Conversion, QuantizeLinear)         [b:1,h:28,h:28,w:24,c:128]                         172,032                             _blocks_blocks_1_conv_conv_3_Conv_output_0   |                     -172,032(-100.0%)       
------ ----------------------------------------------------------------------------------------------------- ---------------------------- ---------------- ------------ ---------------------------------------------------------------------- --- ------------------- ----------------------- ----------------------------- 
138    _blocks_blocks_1_conv_conv_3_Conv_output_0_DequantizeLinear_Output (Conversion, DequantizeLinear)     [b:1,h:28,h:28,w:24,c:128]                         172,032       _blocks_blocks_1_conv_conv_3_Conv_output_0_QuantizeLinear_Output   |                     -172,032(-100.0%)       
------ ----------------------------------------------------------------------------------------------------- ---------------------------- ---------------- ------------ ---------------------------------------------------------------------- --- ------------------- ----------------------- ----------------------------- 
139    _blocks_blocks_1_conv_conv_5_PRelu_output_0 (Nonlinearity, PRelu)                                     [b:1,h:28,h:28,w:24,c:128]   128/512               172,032     _blocks_blocks_1_conv_conv_3_Conv_output_0_DequantizeLinear_Output   | +1,280(+250.0%)     +774,272(+450.1%)       conv2d_oi8[7]                 
------ ----------------------------------------------------------------------------------------------------- ---------------------------- ---------------- ------------ ---------------------------------------------------------------------- --- ------------------- ----------------------- ----------------------------- 
140    _blocks_blocks_1_conv_conv_5_PRelu_output_0_QuantizeLinear_Output (Conversion, QuantizeLinear)        [b:1,h:28,h:28,w:24,c:128]                         172,032                            _blocks_blocks_1_conv_conv_5_PRelu_output_0   |                     -172,032(-100.0%)       
------ ----------------------------------------------------------------------------------------------------- ---------------------------- ---------------- ------------ ---------------------------------------------------------------------- --- ------------------- ----------------------- ----------------------------- 
141    _blocks_blocks_1_conv_conv_5_PRelu_output_0_DequantizeLinear_Output (Conversion, DequantizeLinear)    [b:1,h:28,h:28,w:24,c:128]                         172,032      _blocks_blocks_1_conv_conv_5_PRelu_output_0_QuantizeLinear_Output   |                     -172,032(-100.0%)       
------ ----------------------------------------------------------------------------------------------------- ---------------------------- ---------------- ------------ ---------------------------------------------------------------------- --- ------------------- ----------------------- ----------------------------- 
142    _blocks_blocks_1_conv_conv_6_Conv_output_0 (Conv2D, Conv)                                             [b:1,h:28,h:28,w:24,c:64]    8,256/33,024        5,505,088    _blocks_blocks_1_conv_conv_5_PRelu_output_0_DequantizeLinear_Output   | -24,576(-74.4%)                             conv2d_oi8[8]                 
------ ----------------------------------------------------------------------------------------------------- ---------------------------- ---------------- ------------ ---------------------------------------------------------------------- --- ------------------- ----------------------- ----------------------------- 
143    _blocks_blocks_1_conv_conv_6_Conv_output_0_QuantizeLinear_Output (Conversion, QuantizeLinear)         [b:1,h:28,h:28,w:24,c:64]                           86,016                             _blocks_blocks_1_conv_conv_6_Conv_output_0   |                     -86,016(-100.0%)        
------ ----------------------------------------------------------------------------------------------------- ---------------------------- ---------------- ------------ ---------------------------------------------------------------------- --- ------------------- ----------------------- ----------------------------- 
144    _blocks_blocks_1_conv_conv_6_Conv_output_0_DequantizeLinear_Output (Conversion, DequantizeLinear)     [b:1,h:28,h:28,w:24,c:64]                           86,016       _blocks_blocks_1_conv_conv_6_Conv_output_0_QuantizeLinear_Output   |                     -86,016(-100.0%)        
------ ----------------------------------------------------------------------------------------------------- ---------------------------- ---------------- ------------ ---------------------------------------------------------------------- --- ------------------- ----------------------- ----------------------------- 
145    _blocks_blocks_1_Add_output_0 (Eltwise, Add)                                                          [b:1,h:28,h:28,w:24,c:64]                           43,008     _blocks_blocks_0_conv_conv_6_Conv_output_0_DequantizeLinear_Output   |                                             eltwise_integer/sum_oi8[9]    
                                                                                                                                                                            _blocks_blocks_1_conv_conv_6_Conv_output_0_DequantizeLinear_Output   | 
------ ----------------------------------------------------------------------------------------------------- ---------------------------- ---------------- ------------ ---------------------------------------------------------------------- --- ------------------- ----------------------- ----------------------------- 
146    _blocks_blocks_1_Add_output_0_QuantizeLinear_Output (Conversion, QuantizeLinear)                      [b:1,h:28,h:28,w:24,c:64]                           86,016                                          _blocks_blocks_1_Add_output_0   |                     -86,016(-100.0%)        
------ ----------------------------------------------------------------------------------------------------- ---------------------------- ---------------- ------------ ---------------------------------------------------------------------- --- ------------------- ----------------------- ----------------------------- 
147    _blocks_blocks_1_Add_output_0_DequantizeLinear_Output (Conversion, DequantizeLinear)                  [b:1,h:28,h:28,w:24,c:64]                           86,016                    _blocks_blocks_1_Add_output_0_QuantizeLinear_Output   |                     -86,016(-100.0%)        
------ ----------------------------------------------------------------------------------------------------- ---------------------------- ---------------- ------------ ---------------------------------------------------------------------- --- ------------------- ----------------------- ----------------------------- 
148    _blocks_blocks_2_conv_conv_0_Conv_output_0 (Conv2D, Conv)                                             [b:1,h:28,h:28,w:24,c:128]   8,320/33,280        5,505,152                  _blocks_blocks_1_Add_output_0_DequantizeLinear_Output   | -33,280(-100.0%)    -5,505,152(-100.0%)     
------ ----------------------------------------------------------------------------------------------------- ---------------------------- ---------------- ------------ ---------------------------------------------------------------------- --- ------------------- ----------------------- ----------------------------- 
149    _blocks_blocks_2_conv_conv_0_Conv_output_0_QuantizeLinear_Output (Conversion, QuantizeLinear)         [b:1,h:28,h:28,w:24,c:128]                         172,032                             _blocks_blocks_2_conv_conv_0_Conv_output_0   |                     -172,032(-100.0%)       
------ ----------------------------------------------------------------------------------------------------- ---------------------------- ---------------- ------------ ---------------------------------------------------------------------- --- ------------------- ----------------------- ----------------------------- 
150    _blocks_blocks_2_conv_conv_0_Conv_output_0_DequantizeLinear_Output (Conversion, DequantizeLinear)     [b:1,h:28,h:28,w:24,c:128]                         172,032       _blocks_blocks_2_conv_conv_0_Conv_output_0_QuantizeLinear_Output   |                     -172,032(-100.0%)       
------ ----------------------------------------------------------------------------------------------------- ---------------------------- ---------------- ------------ ---------------------------------------------------------------------- --- ------------------- ----------------------- ----------------------------- 
151    _blocks_blocks_2_conv_conv_2_PRelu_output_0 (Nonlinearity, PRelu)                                     [b:1,h:28,h:28,w:24,c:128]   128/512               172,032     _blocks_blocks_2_conv_conv_0_Conv_output_0_DequantizeLinear_Output   | +8,320(+1625.0%)    +5,505,152(+3200.1%)    conv2d_oi8[10]                
------ ----------------------------------------------------------------------------------------------------- ---------------------------- ---------------- ------------ ---------------------------------------------------------------------- --- ------------------- ----------------------- ----------------------------- 
152    _blocks_blocks_2_conv_conv_2_PRelu_output_0_QuantizeLinear_Output (Conversion, QuantizeLinear)        [b:1,h:28,h:28,w:24,c:128]                         172,032                            _blocks_blocks_2_conv_conv_2_PRelu_output_0   |                     -172,032(-100.0%)       
------ ----------------------------------------------------------------------------------------------------- ---------------------------- ---------------- ------------ ---------------------------------------------------------------------- --- ------------------- ----------------------- ----------------------------- 
153    _blocks_blocks_2_conv_conv_2_PRelu_output_0_DequantizeLinear_Output (Conversion, DequantizeLinear)    [b:1,h:28,h:28,w:24,c:128]                         172,032      _blocks_blocks_2_conv_conv_2_PRelu_output_0_QuantizeLinear_Output   |                     -172,032(-100.0%)       
------ ----------------------------------------------------------------------------------------------------- ---------------------------- ---------------- ------------ ---------------------------------------------------------------------- --- ------------------- ----------------------- ----------------------------- 
154    _blocks_blocks_2_conv_conv_3_Conv_output_0 (Conv2D, Conv)                                             [b:1,h:28,h:28,w:24,c:128]   1,280/5,120           774,272    _blocks_blocks_2_conv_conv_2_PRelu_output_0_DequantizeLinear_Output   | -5,120(-100.0%)     -774,272(-100.0%)       
------ ----------------------------------------------------------------------------------------------------- ---------------------------- ---------------- ------------ ---------------------------------------------------------------------- --- ------------------- ----------------------- ----------------------------- 
155    _blocks_blocks_2_conv_conv_3_Conv_output_0_QuantizeLinear_Output (Conversion, QuantizeLinear)         [b:1,h:28,h:28,w:24,c:128]                         172,032                             _blocks_blocks_2_conv_conv_3_Conv_output_0   |                     -172,032(-100.0%)       
------ ----------------------------------------------------------------------------------------------------- ---------------------------- ---------------- ------------ ---------------------------------------------------------------------- --- ------------------- ----------------------- ----------------------------- 
156    _blocks_blocks_2_conv_conv_3_Conv_output_0_DequantizeLinear_Output (Conversion, DequantizeLinear)     [b:1,h:28,h:28,w:24,c:128]                         172,032       _blocks_blocks_2_conv_conv_3_Conv_output_0_QuantizeLinear_Output   |                     -172,032(-100.0%)       
------ ----------------------------------------------------------------------------------------------------- ---------------------------- ---------------- ------------ ---------------------------------------------------------------------- --- ------------------- ----------------------- ----------------------------- 
157    _blocks_blocks_2_conv_conv_5_PRelu_output_0 (Nonlinearity, PRelu)                                     [b:1,h:28,h:28,w:24,c:128]   128/512               172,032     _blocks_blocks_2_conv_conv_3_Conv_output_0_DequantizeLinear_Output   | +1,280(+250.0%)     +774,272(+450.1%)       conv2d_oi8[11]                
------ ----------------------------------------------------------------------------------------------------- ---------------------------- ---------------- ------------ ---------------------------------------------------------------------- --- ------------------- ----------------------- ----------------------------- 
158    _blocks_blocks_2_conv_conv_5_PRelu_output_0_QuantizeLinear_Output (Conversion, QuantizeLinear)        [b:1,h:28,h:28,w:24,c:128]                         172,032                            _blocks_blocks_2_conv_conv_5_PRelu_output_0   |                     -172,032(-100.0%)       
------ ----------------------------------------------------------------------------------------------------- ---------------------------- ---------------- ------------ ---------------------------------------------------------------------- --- ------------------- ----------------------- ----------------------------- 
159    _blocks_blocks_2_conv_conv_5_PRelu_output_0_DequantizeLinear_Output (Conversion, DequantizeLinear)    [b:1,h:28,h:28,w:24,c:128]                         172,032      _blocks_blocks_2_conv_conv_5_PRelu_output_0_QuantizeLinear_Output   |                     -172,032(-100.0%)       
------ ----------------------------------------------------------------------------------------------------- ---------------------------- ---------------- ------------ ---------------------------------------------------------------------- --- ------------------- ----------------------- ----------------------------- 
160    _blocks_blocks_2_conv_conv_6_Conv_output_0 (Conv2D, Conv)                                             [b:1,h:28,h:28,w:24,c:64]    8,256/33,024        5,505,088    _blocks_blocks_2_conv_conv_5_PRelu_output_0_DequantizeLinear_Output   | -24,576(-74.4%)                             conv2d_oi8[12]                
------ ----------------------------------------------------------------------------------------------------- ---------------------------- ---------------- ------------ ---------------------------------------------------------------------- --- ------------------- ----------------------- ----------------------------- 
161    _blocks_blocks_2_conv_conv_6_Conv_output_0_QuantizeLinear_Output (Conversion, QuantizeLinear)         [b:1,h:28,h:28,w:24,c:64]                           86,016                             _blocks_blocks_2_conv_conv_6_Conv_output_0   |                     -86,016(-100.0%)        
------ ----------------------------------------------------------------------------------------------------- ---------------------------- ---------------- ------------ ---------------------------------------------------------------------- --- ------------------- ----------------------- ----------------------------- 
162    _blocks_blocks_2_conv_conv_6_Conv_output_0_DequantizeLinear_Output (Conversion, DequantizeLinear)     [b:1,h:28,h:28,w:24,c:64]                           86,016       _blocks_blocks_2_conv_conv_6_Conv_output_0_QuantizeLinear_Output   |                     -86,016(-100.0%)        
------ ----------------------------------------------------------------------------------------------------- ---------------------------- ---------------- ------------ ---------------------------------------------------------------------- --- ------------------- ----------------------- ----------------------------- 
163    _blocks_blocks_2_Add_output_0 (Eltwise, Add)                                                          [b:1,h:28,h:28,w:24,c:64]                           43,008                  _blocks_blocks_1_Add_output_0_DequantizeLinear_Output   |                                             eltwise_integer/sum_oi8[13]   
                                                                                                                                                                            _blocks_blocks_2_conv_conv_6_Conv_output_0_DequantizeLinear_Output   | 
------ ----------------------------------------------------------------------------------------------------- ---------------------------- ---------------- ------------ ---------------------------------------------------------------------- --- ------------------- ----------------------- ----------------------------- 
164    _blocks_blocks_2_Add_output_0_QuantizeLinear_Output (Conversion, QuantizeLinear)                      [b:1,h:28,h:28,w:24,c:64]                           86,016                                          _blocks_blocks_2_Add_output_0   |                     -86,016(-100.0%)        
------ ----------------------------------------------------------------------------------------------------- ---------------------------- ---------------- ------------ ---------------------------------------------------------------------- --- ------------------- ----------------------- ----------------------------- 
165    _blocks_blocks_2_Add_output_0_DequantizeLinear_Output (Conversion, DequantizeLinear)                  [b:1,h:28,h:28,w:24,c:64]                           86,016                    _blocks_blocks_2_Add_output_0_QuantizeLinear_Output   |                     -86,016(-100.0%)        
------ ----------------------------------------------------------------------------------------------------- ---------------------------- ---------------- ------------ ---------------------------------------------------------------------- --- ------------------- ----------------------- ----------------------------- 
166    _blocks_blocks_3_conv_conv_0_Conv_output_0 (Conv2D, Conv)                                             [b:1,h:28,h:28,w:24,c:128]   8,320/33,280        5,505,152                  _blocks_blocks_2_Add_output_0_DequantizeLinear_Output   | -33,280(-100.0%)    -5,505,152(-100.0%)     
------ ----------------------------------------------------------------------------------------------------- ---------------------------- ---------------- ------------ ---------------------------------------------------------------------- --- ------------------- ----------------------- ----------------------------- 
167    _blocks_blocks_3_conv_conv_0_Conv_output_0_QuantizeLinear_Output (Conversion, QuantizeLinear)         [b:1,h:28,h:28,w:24,c:128]                         172,032                             _blocks_blocks_3_conv_conv_0_Conv_output_0   |                     -172,032(-100.0%)       
------ ----------------------------------------------------------------------------------------------------- ---------------------------- ---------------- ------------ ---------------------------------------------------------------------- --- ------------------- ----------------------- ----------------------------- 
168    _blocks_blocks_3_conv_conv_0_Conv_output_0_DequantizeLinear_Output (Conversion, DequantizeLinear)     [b:1,h:28,h:28,w:24,c:128]                         172,032       _blocks_blocks_3_conv_conv_0_Conv_output_0_QuantizeLinear_Output   |                     -172,032(-100.0%)       
------ ----------------------------------------------------------------------------------------------------- ---------------------------- ---------------- ------------ ---------------------------------------------------------------------- --- ------------------- ----------------------- ----------------------------- 
169    _blocks_blocks_3_conv_conv_2_PRelu_output_0 (Nonlinearity, PRelu)                                     [b:1,h:28,h:28,w:24,c:128]   128/512               172,032     _blocks_blocks_3_conv_conv_0_Conv_output_0_DequantizeLinear_Output   | +8,320(+1625.0%)    +5,505,152(+3200.1%)    conv2d_oi8[14]                
------ ----------------------------------------------------------------------------------------------------- ---------------------------- ---------------- ------------ ---------------------------------------------------------------------- --- ------------------- ----------------------- ----------------------------- 
170    _blocks_blocks_3_conv_conv_2_PRelu_output_0_QuantizeLinear_Output (Conversion, QuantizeLinear)        [b:1,h:28,h:28,w:24,c:128]                         172,032                            _blocks_blocks_3_conv_conv_2_PRelu_output_0   |                     -172,032(-100.0%)       
------ ----------------------------------------------------------------------------------------------------- ---------------------------- ---------------- ------------ ---------------------------------------------------------------------- --- ------------------- ----------------------- ----------------------------- 
171    _blocks_blocks_3_conv_conv_2_PRelu_output_0_DequantizeLinear_Output (Conversion, DequantizeLinear)    [b:1,h:28,h:28,w:24,c:128]                         172,032      _blocks_blocks_3_conv_conv_2_PRelu_output_0_QuantizeLinear_Output   |                     -172,032(-100.0%)       
------ ----------------------------------------------------------------------------------------------------- ---------------------------- ---------------- ------------ ---------------------------------------------------------------------- --- ------------------- ----------------------- ----------------------------- 
172    _blocks_blocks_3_conv_conv_3_Conv_output_0 (Conv2D, Conv)                                             [b:1,h:28,h:28,w:24,c:128]   1,280/5,120           774,272    _blocks_blocks_3_conv_conv_2_PRelu_output_0_DequantizeLinear_Output   | -5,120(-100.0%)     -774,272(-100.0%)       
------ ----------------------------------------------------------------------------------------------------- ---------------------------- ---------------- ------------ ---------------------------------------------------------------------- --- ------------------- ----------------------- ----------------------------- 
173    _blocks_blocks_3_conv_conv_3_Conv_output_0_QuantizeLinear_Output (Conversion, QuantizeLinear)         [b:1,h:28,h:28,w:24,c:128]                         172,032                             _blocks_blocks_3_conv_conv_3_Conv_output_0   |                     -172,032(-100.0%)       
------ ----------------------------------------------------------------------------------------------------- ---------------------------- ---------------- ------------ ---------------------------------------------------------------------- --- ------------------- ----------------------- ----------------------------- 
174    _blocks_blocks_3_conv_conv_3_Conv_output_0_DequantizeLinear_Output (Conversion, DequantizeLinear)     [b:1,h:28,h:28,w:24,c:128]                         172,032       _blocks_blocks_3_conv_conv_3_Conv_output_0_QuantizeLinear_Output   |                     -172,032(-100.0%)       
------ ----------------------------------------------------------------------------------------------------- ---------------------------- ---------------- ------------ ---------------------------------------------------------------------- --- ------------------- ----------------------- ----------------------------- 
175    _blocks_blocks_3_conv_conv_5_PRelu_output_0 (Nonlinearity, PRelu)                                     [b:1,h:28,h:28,w:24,c:128]   128/512               172,032     _blocks_blocks_3_conv_conv_3_Conv_output_0_DequantizeLinear_Output   | +1,280(+250.0%)     +774,272(+450.1%)       conv2d_oi8[15]                
------ ----------------------------------------------------------------------------------------------------- ---------------------------- ---------------- ------------ ---------------------------------------------------------------------- --- ------------------- ----------------------- ----------------------------- 
176    _blocks_blocks_3_conv_conv_5_PRelu_output_0_QuantizeLinear_Output (Conversion, QuantizeLinear)        [b:1,h:28,h:28,w:24,c:128]                         172,032                            _blocks_blocks_3_conv_conv_5_PRelu_output_0   |                     -172,032(-100.0%)       
------ ----------------------------------------------------------------------------------------------------- ---------------------------- ---------------- ------------ ---------------------------------------------------------------------- --- ------------------- ----------------------- ----------------------------- 
177    _blocks_blocks_3_conv_conv_5_PRelu_output_0_DequantizeLinear_Output (Conversion, DequantizeLinear)    [b:1,h:28,h:28,w:24,c:128]                         172,032      _blocks_blocks_3_conv_conv_5_PRelu_output_0_QuantizeLinear_Output   |                     -172,032(-100.0%)       
------ ----------------------------------------------------------------------------------------------------- ---------------------------- ---------------- ------------ ---------------------------------------------------------------------- --- ------------------- ----------------------- ----------------------------- 
178    _blocks_blocks_3_conv_conv_6_Conv_output_0 (Conv2D, Conv)                                             [b:1,h:28,h:28,w:24,c:64]    8,256/33,024        5,505,088    _blocks_blocks_3_conv_conv_5_PRelu_output_0_DequantizeLinear_Output   | -24,576(-74.4%)                             conv2d_oi8[16]                
------ ----------------------------------------------------------------------------------------------------- ---------------------------- ---------------- ------------ ---------------------------------------------------------------------- --- ------------------- ----------------------- ----------------------------- 
179    _blocks_blocks_3_conv_conv_6_Conv_output_0_QuantizeLinear_Output (Conversion, QuantizeLinear)         [b:1,h:28,h:28,w:24,c:64]                           86,016                             _blocks_blocks_3_conv_conv_6_Conv_output_0   |                     -86,016(-100.0%)        
------ ----------------------------------------------------------------------------------------------------- ---------------------------- ---------------- ------------ ---------------------------------------------------------------------- --- ------------------- ----------------------- ----------------------------- 
180    _blocks_blocks_3_conv_conv_6_Conv_output_0_DequantizeLinear_Output (Conversion, DequantizeLinear)     [b:1,h:28,h:28,w:24,c:64]                           86,016       _blocks_blocks_3_conv_conv_6_Conv_output_0_QuantizeLinear_Output   |                     -86,016(-100.0%)        
------ ----------------------------------------------------------------------------------------------------- ---------------------------- ---------------- ------------ ---------------------------------------------------------------------- --- ------------------- ----------------------- ----------------------------- 
181    _blocks_blocks_3_Add_output_0 (Eltwise, Add)                                                          [b:1,h:28,h:28,w:24,c:64]                           43,008                  _blocks_blocks_2_Add_output_0_DequantizeLinear_Output   |                                             eltwise_integer/sum_oi8[17]   
                                                                                                                                                                            _blocks_blocks_3_conv_conv_6_Conv_output_0_DequantizeLinear_Output   | 
------ ----------------------------------------------------------------------------------------------------- ---------------------------- ---------------- ------------ ---------------------------------------------------------------------- --- ------------------- ----------------------- ----------------------------- 
182    _blocks_blocks_3_Add_output_0_QuantizeLinear_Output (Conversion, QuantizeLinear)                      [b:1,h:28,h:28,w:24,c:64]                           86,016                                          _blocks_blocks_3_Add_output_0   |                     -86,016(-100.0%)        
------ ----------------------------------------------------------------------------------------------------- ---------------------------- ---------------- ------------ ---------------------------------------------------------------------- --- ------------------- ----------------------- ----------------------------- 
183    _blocks_blocks_3_Add_output_0_DequantizeLinear_Output (Conversion, DequantizeLinear)                  [b:1,h:28,h:28,w:24,c:64]                           86,016                    _blocks_blocks_3_Add_output_0_QuantizeLinear_Output   |                     -86,016(-100.0%)        
------ ----------------------------------------------------------------------------------------------------- ---------------------------- ---------------- ------------ ---------------------------------------------------------------------- --- ------------------- ----------------------- ----------------------------- 
184    _blocks_blocks_4_conv_conv_0_Conv_output_0 (Conv2D, Conv)                                             [b:1,h:28,h:28,w:24,c:128]   8,320/33,280        5,505,152                  _blocks_blocks_3_Add_output_0_DequantizeLinear_Output   | -33,280(-100.0%)    -5,505,152(-100.0%)     
------ ----------------------------------------------------------------------------------------------------- ---------------------------- ---------------- ------------ ---------------------------------------------------------------------- --- ------------------- ----------------------- ----------------------------- 
185    _blocks_blocks_4_conv_conv_0_Conv_output_0_QuantizeLinear_Output (Conversion, QuantizeLinear)         [b:1,h:28,h:28,w:24,c:128]                         172,032                             _blocks_blocks_4_conv_conv_0_Conv_output_0   |                     -172,032(-100.0%)       
------ ----------------------------------------------------------------------------------------------------- ---------------------------- ---------------- ------------ ---------------------------------------------------------------------- --- ------------------- ----------------------- ----------------------------- 
186    _blocks_blocks_4_conv_conv_0_Conv_output_0_DequantizeLinear_Output (Conversion, DequantizeLinear)     [b:1,h:28,h:28,w:24,c:128]                         172,032       _blocks_blocks_4_conv_conv_0_Conv_output_0_QuantizeLinear_Output   |                     -172,032(-100.0%)       
------ ----------------------------------------------------------------------------------------------------- ---------------------------- ---------------- ------------ ---------------------------------------------------------------------- --- ------------------- ----------------------- ----------------------------- 
187    _blocks_blocks_4_conv_conv_2_PRelu_output_0 (Nonlinearity, PRelu)                                     [b:1,h:28,h:28,w:24,c:128]   128/512               172,032     _blocks_blocks_4_conv_conv_0_Conv_output_0_DequantizeLinear_Output   | +8,320(+1625.0%)    +5,505,152(+3200.1%)    conv2d_oi8[18]                
------ ----------------------------------------------------------------------------------------------------- ---------------------------- ---------------- ------------ ---------------------------------------------------------------------- --- ------------------- ----------------------- ----------------------------- 
188    _blocks_blocks_4_conv_conv_2_PRelu_output_0_QuantizeLinear_Output (Conversion, QuantizeLinear)        [b:1,h:28,h:28,w:24,c:128]                         172,032                            _blocks_blocks_4_conv_conv_2_PRelu_output_0   |                     -172,032(-100.0%)       
------ ----------------------------------------------------------------------------------------------------- ---------------------------- ---------------- ------------ ---------------------------------------------------------------------- --- ------------------- ----------------------- ----------------------------- 
189    _blocks_blocks_4_conv_conv_2_PRelu_output_0_DequantizeLinear_Output (Conversion, DequantizeLinear)    [b:1,h:28,h:28,w:24,c:128]                         172,032      _blocks_blocks_4_conv_conv_2_PRelu_output_0_QuantizeLinear_Output   |                     -172,032(-100.0%)       
------ ----------------------------------------------------------------------------------------------------- ---------------------------- ---------------- ------------ ---------------------------------------------------------------------- --- ------------------- ----------------------- ----------------------------- 
190    _blocks_blocks_4_conv_conv_3_Conv_output_0 (Conv2D, Conv)                                             [b:1,h:28,h:28,w:24,c:128]   1,280/5,120           774,272    _blocks_blocks_4_conv_conv_2_PRelu_output_0_DequantizeLinear_Output   | -5,120(-100.0%)     -774,272(-100.0%)       
------ ----------------------------------------------------------------------------------------------------- ---------------------------- ---------------- ------------ ---------------------------------------------------------------------- --- ------------------- ----------------------- ----------------------------- 
191    _blocks_blocks_4_conv_conv_3_Conv_output_0_QuantizeLinear_Output (Conversion, QuantizeLinear)         [b:1,h:28,h:28,w:24,c:128]                         172,032                             _blocks_blocks_4_conv_conv_3_Conv_output_0   |                     -172,032(-100.0%)       
------ ----------------------------------------------------------------------------------------------------- ---------------------------- ---------------- ------------ ---------------------------------------------------------------------- --- ------------------- ----------------------- ----------------------------- 
192    _blocks_blocks_4_conv_conv_3_Conv_output_0_DequantizeLinear_Output (Conversion, DequantizeLinear)     [b:1,h:28,h:28,w:24,c:128]                         172,032       _blocks_blocks_4_conv_conv_3_Conv_output_0_QuantizeLinear_Output   |                     -172,032(-100.0%)       
------ ----------------------------------------------------------------------------------------------------- ---------------------------- ---------------- ------------ ---------------------------------------------------------------------- --- ------------------- ----------------------- ----------------------------- 
193    _blocks_blocks_4_conv_conv_5_PRelu_output_0 (Nonlinearity, PRelu)                                     [b:1,h:28,h:28,w:24,c:128]   128/512               172,032     _blocks_blocks_4_conv_conv_3_Conv_output_0_DequantizeLinear_Output   | +1,280(+250.0%)     +774,272(+450.1%)       conv2d_oi8[19]                
------ ----------------------------------------------------------------------------------------------------- ---------------------------- ---------------- ------------ ---------------------------------------------------------------------- --- ------------------- ----------------------- ----------------------------- 
194    _blocks_blocks_4_conv_conv_5_PRelu_output_0_QuantizeLinear_Output (Conversion, QuantizeLinear)        [b:1,h:28,h:28,w:24,c:128]                         172,032                            _blocks_blocks_4_conv_conv_5_PRelu_output_0   |                     -172,032(-100.0%)       
------ ----------------------------------------------------------------------------------------------------- ---------------------------- ---------------- ------------ ---------------------------------------------------------------------- --- ------------------- ----------------------- ----------------------------- 
195    _blocks_blocks_4_conv_conv_5_PRelu_output_0_DequantizeLinear_Output (Conversion, DequantizeLinear)    [b:1,h:28,h:28,w:24,c:128]                         172,032      _blocks_blocks_4_conv_conv_5_PRelu_output_0_QuantizeLinear_Output   |                     -172,032(-100.0%)       
------ ----------------------------------------------------------------------------------------------------- ---------------------------- ---------------- ------------ ---------------------------------------------------------------------- --- ------------------- ----------------------- ----------------------------- 
196    _blocks_blocks_4_conv_conv_6_Conv_output_0 (Conv2D, Conv)                                             [b:1,h:28,h:28,w:24,c:64]    8,256/33,024        5,505,088    _blocks_blocks_4_conv_conv_5_PRelu_output_0_DequantizeLinear_Output   | -24,576(-74.4%)                             conv2d_oi8[20]                
------ ----------------------------------------------------------------------------------------------------- ---------------------------- ---------------- ------------ ---------------------------------------------------------------------- --- ------------------- ----------------------- ----------------------------- 
197    _blocks_blocks_4_conv_conv_6_Conv_output_0_QuantizeLinear_Output (Conversion, QuantizeLinear)         [b:1,h:28,h:28,w:24,c:64]                           86,016                             _blocks_blocks_4_conv_conv_6_Conv_output_0   |                     -86,016(-100.0%)        
------ ----------------------------------------------------------------------------------------------------- ---------------------------- ---------------- ------------ ---------------------------------------------------------------------- --- ------------------- ----------------------- ----------------------------- 
198    _blocks_blocks_4_conv_conv_6_Conv_output_0_DequantizeLinear_Output (Conversion, DequantizeLinear)     [b:1,h:28,h:28,w:24,c:64]                           86,016       _blocks_blocks_4_conv_conv_6_Conv_output_0_QuantizeLinear_Output   |                     -86,016(-100.0%)        
------ ----------------------------------------------------------------------------------------------------- ---------------------------- ---------------- ------------ ---------------------------------------------------------------------- --- ------------------- ----------------------- ----------------------------- 
199    _blocks_blocks_4_Add_output_0 (Eltwise, Add)                                                          [b:1,h:28,h:28,w:24,c:64]                           43,008                  _blocks_blocks_3_Add_output_0_DequantizeLinear_Output   |                                             eltwise_integer/sum_oi8[21]   
                                                                                                                                                                            _blocks_blocks_4_conv_conv_6_Conv_output_0_DequantizeLinear_Output   | 
------ ----------------------------------------------------------------------------------------------------- ---------------------------- ---------------- ------------ ---------------------------------------------------------------------- --- ------------------- ----------------------- ----------------------------- 
200    _blocks_blocks_4_Add_output_0_QuantizeLinear_Output (Conversion, QuantizeLinear)                      [b:1,h:28,h:28,w:24,c:64]                           86,016                                          _blocks_blocks_4_Add_output_0   |                     -86,016(-100.0%)        
------ ----------------------------------------------------------------------------------------------------- ---------------------------- ---------------- ------------ ---------------------------------------------------------------------- --- ------------------- ----------------------- ----------------------------- 
201    _blocks_blocks_4_Add_output_0_DequantizeLinear_Output (Conversion, DequantizeLinear)                  [b:1,h:28,h:28,w:24,c:64]                           86,016                    _blocks_blocks_4_Add_output_0_QuantizeLinear_Output   |                     -86,016(-100.0%)        
------ ----------------------------------------------------------------------------------------------------- ---------------------------- ---------------- ------------ ---------------------------------------------------------------------- --- ------------------- ----------------------- ----------------------------- 
202    _blocks_blocks_5_conv_conv_0_Conv_output_0 (Conv2D, Conv)                                             [b:1,h:28,h:28,w:24,c:256]   16,640/66,560      11,010,304                  _blocks_blocks_4_Add_output_0_DequantizeLinear_Output   | -66,560(-100.0%)    -11,010,304(-100.0%)    
------ ----------------------------------------------------------------------------------------------------- ---------------------------- ---------------- ------------ ---------------------------------------------------------------------- --- ------------------- ----------------------- ----------------------------- 
203    _blocks_blocks_5_conv_conv_0_Conv_output_0_QuantizeLinear_Output (Conversion, QuantizeLinear)         [b:1,h:28,h:28,w:24,c:256]                         344,064                             _blocks_blocks_5_conv_conv_0_Conv_output_0   |                     -344,064(-100.0%)       
------ ----------------------------------------------------------------------------------------------------- ---------------------------- ---------------- ------------ ---------------------------------------------------------------------- --- ------------------- ----------------------- ----------------------------- 
204    _blocks_blocks_5_conv_conv_0_Conv_output_0_DequantizeLinear_Output (Conversion, DequantizeLinear)     [b:1,h:28,h:28,w:24,c:256]                         344,064       _blocks_blocks_5_conv_conv_0_Conv_output_0_QuantizeLinear_Output   |                     -344,064(-100.0%)       
------ ----------------------------------------------------------------------------------------------------- ---------------------------- ---------------- ------------ ---------------------------------------------------------------------- --- ------------------- ----------------------- ----------------------------- 
205    _blocks_blocks_5_conv_conv_2_PRelu_output_0 (Nonlinearity, PRelu)                                     [b:1,h:28,h:28,w:24,c:256]   256/1,024             344,064     _blocks_blocks_5_conv_conv_0_Conv_output_0_DequantizeLinear_Output   | +16,640(+1625.0%)   +11,010,304(+3200.1%)   conv2d_oi8[22]                
------ ----------------------------------------------------------------------------------------------------- ---------------------------- ---------------- ------------ ---------------------------------------------------------------------- --- ------------------- ----------------------- ----------------------------- 
206    _blocks_blocks_5_conv_conv_2_PRelu_output_0_QuantizeLinear_Output (Conversion, QuantizeLinear)        [b:1,h:28,h:28,w:24,c:256]                         344,064                            _blocks_blocks_5_conv_conv_2_PRelu_output_0   |                     -344,064(-100.0%)       
------ ----------------------------------------------------------------------------------------------------- ---------------------------- ---------------- ------------ ---------------------------------------------------------------------- --- ------------------- ----------------------- ----------------------------- 
207    _blocks_blocks_5_conv_conv_2_PRelu_output_0_DequantizeLinear_Output (Conversion, DequantizeLinear)    [b:1,h:28,h:28,w:24,c:256]                         344,064      _blocks_blocks_5_conv_conv_2_PRelu_output_0_QuantizeLinear_Output   |                     -344,064(-100.0%)       
------ ----------------------------------------------------------------------------------------------------- ---------------------------- ---------------- ------------ ---------------------------------------------------------------------- --- ------------------- ----------------------- ----------------------------- 
208    _blocks_blocks_5_conv_conv_3_Conv_output_0 (Conv2D, Conv)                                             [b:1,h:14,h:14,w:12,c:256]   2,560/10,240          387,328    _blocks_blocks_5_conv_conv_2_PRelu_output_0_DequantizeLinear_Output   | -10,240(-100.0%)    -387,328(-100.0%)       
------ ----------------------------------------------------------------------------------------------------- ---------------------------- ---------------- ------------ ---------------------------------------------------------------------- --- ------------------- ----------------------- ----------------------------- 
209    _blocks_blocks_5_conv_conv_3_Conv_output_0_QuantizeLinear_Output (Conversion, QuantizeLinear)         [b:1,h:14,h:14,w:12,c:256]                          86,016                             _blocks_blocks_5_conv_conv_3_Conv_output_0   |                     -86,016(-100.0%)        
------ ----------------------------------------------------------------------------------------------------- ---------------------------- ---------------- ------------ ---------------------------------------------------------------------- --- ------------------- ----------------------- ----------------------------- 
210    _blocks_blocks_5_conv_conv_3_Conv_output_0_DequantizeLinear_Output (Conversion, DequantizeLinear)     [b:1,h:14,h:14,w:12,c:256]                          86,016       _blocks_blocks_5_conv_conv_3_Conv_output_0_QuantizeLinear_Output   |                     -86,016(-100.0%)        
------ ----------------------------------------------------------------------------------------------------- ---------------------------- ---------------- ------------ ---------------------------------------------------------------------- --- ------------------- ----------------------- ----------------------------- 
211    _blocks_blocks_5_conv_conv_5_PRelu_output_0 (Nonlinearity, PRelu)                                     [b:1,h:14,h:14,w:12,c:256]   256/1,024              86,016     _blocks_blocks_5_conv_conv_3_Conv_output_0_DequantizeLinear_Output   | +2,560(+250.0%)     +387,328(+450.3%)       conv2d_oi8[23]                
------ ----------------------------------------------------------------------------------------------------- ---------------------------- ---------------- ------------ ---------------------------------------------------------------------- --- ------------------- ----------------------- ----------------------------- 
212    _blocks_blocks_5_conv_conv_5_PRelu_output_0_QuantizeLinear_Output (Conversion, QuantizeLinear)        [b:1,h:14,h:14,w:12,c:256]                          86,016                            _blocks_blocks_5_conv_conv_5_PRelu_output_0   |                     -86,016(-100.0%)        
------ ----------------------------------------------------------------------------------------------------- ---------------------------- ---------------- ------------ ---------------------------------------------------------------------- --- ------------------- ----------------------- ----------------------------- 
213    _blocks_blocks_5_conv_conv_5_PRelu_output_0_DequantizeLinear_Output (Conversion, DequantizeLinear)    [b:1,h:14,h:14,w:12,c:256]                          86,016      _blocks_blocks_5_conv_conv_5_PRelu_output_0_QuantizeLinear_Output   |                     -86,016(-100.0%)        
------ ----------------------------------------------------------------------------------------------------- ---------------------------- ---------------- ------------ ---------------------------------------------------------------------- --- ------------------- ----------------------- ----------------------------- 
214    _blocks_blocks_5_conv_conv_6_Conv_output_0 (Conv2D, Conv)                                             [b:1,h:14,h:14,w:12,c:128]   32,896/131,584      5,505,152    _blocks_blocks_5_conv_conv_5_PRelu_output_0_DequantizeLinear_Output   | -98,304(-74.7%)                             conv2d_oi8[24]                
------ ----------------------------------------------------------------------------------------------------- ---------------------------- ---------------- ------------ ---------------------------------------------------------------------- --- ------------------- ----------------------- ----------------------------- 
215    _blocks_blocks_5_conv_conv_6_Conv_output_0_QuantizeLinear_Output (Conversion, QuantizeLinear)         [b:1,h:14,h:14,w:12,c:128]                          43,008                             _blocks_blocks_5_conv_conv_6_Conv_output_0   |                     -43,008(-100.0%)        
------ ----------------------------------------------------------------------------------------------------- ---------------------------- ---------------- ------------ ---------------------------------------------------------------------- --- ------------------- ----------------------- ----------------------------- 
216    _blocks_blocks_5_conv_conv_6_Conv_output_0_DequantizeLinear_Output (Conversion, DequantizeLinear)     [b:1,h:14,h:14,w:12,c:128]                          43,008       _blocks_blocks_5_conv_conv_6_Conv_output_0_QuantizeLinear_Output   |                     -43,008(-100.0%)        
------ ----------------------------------------------------------------------------------------------------- ---------------------------- ---------------- ------------ ---------------------------------------------------------------------- --- ------------------- ----------------------- ----------------------------- 
217    _blocks_blocks_6_conv_conv_0_Conv_output_0 (Conv2D, Conv)                                             [b:1,h:14,h:14,w:12,c:256]   33,024/132,096      5,505,280     _blocks_blocks_5_conv_conv_6_Conv_output_0_DequantizeLinear_Output   | -132,096(-100.0%)   -5,505,280(-100.0%)     
------ ----------------------------------------------------------------------------------------------------- ---------------------------- ---------------- ------------ ---------------------------------------------------------------------- --- ------------------- ----------------------- ----------------------------- 
218    _blocks_blocks_6_conv_conv_0_Conv_output_0_QuantizeLinear_Output (Conversion, QuantizeLinear)         [b:1,h:14,h:14,w:12,c:256]                          86,016                             _blocks_blocks_6_conv_conv_0_Conv_output_0   |                     -86,016(-100.0%)        
------ ----------------------------------------------------------------------------------------------------- ---------------------------- ---------------- ------------ ---------------------------------------------------------------------- --- ------------------- ----------------------- ----------------------------- 
219    _blocks_blocks_6_conv_conv_0_Conv_output_0_DequantizeLinear_Output (Conversion, DequantizeLinear)     [b:1,h:14,h:14,w:12,c:256]                          86,016       _blocks_blocks_6_conv_conv_0_Conv_output_0_QuantizeLinear_Output   |                     -86,016(-100.0%)        
------ ----------------------------------------------------------------------------------------------------- ---------------------------- ---------------- ------------ ---------------------------------------------------------------------- --- ------------------- ----------------------- ----------------------------- 
220    _blocks_blocks_6_conv_conv_2_PRelu_output_0 (Nonlinearity, PRelu)                                     [b:1,h:14,h:14,w:12,c:256]   256/1,024              86,016     _blocks_blocks_6_conv_conv_0_Conv_output_0_DequantizeLinear_Output   | +33,024(+3225.0%)   +5,505,280(+6400.3%)    conv2d_oi8[25]                
------ ----------------------------------------------------------------------------------------------------- ---------------------------- ---------------- ------------ ---------------------------------------------------------------------- --- ------------------- ----------------------- ----------------------------- 
221    _blocks_blocks_6_conv_conv_2_PRelu_output_0_QuantizeLinear_Output (Conversion, QuantizeLinear)        [b:1,h:14,h:14,w:12,c:256]                          86,016                            _blocks_blocks_6_conv_conv_2_PRelu_output_0   |                     -86,016(-100.0%)        
------ ----------------------------------------------------------------------------------------------------- ---------------------------- ---------------- ------------ ---------------------------------------------------------------------- --- ------------------- ----------------------- ----------------------------- 
222    _blocks_blocks_6_conv_conv_2_PRelu_output_0_DequantizeLinear_Output (Conversion, DequantizeLinear)    [b:1,h:14,h:14,w:12,c:256]                          86,016      _blocks_blocks_6_conv_conv_2_PRelu_output_0_QuantizeLinear_Output   |                     -86,016(-100.0%)        
------ ----------------------------------------------------------------------------------------------------- ---------------------------- ---------------- ------------ ---------------------------------------------------------------------- --- ------------------- ----------------------- ----------------------------- 
223    _blocks_blocks_6_conv_conv_3_Conv_output_0 (Conv2D, Conv)                                             [b:1,h:14,h:14,w:12,c:256]   2,560/10,240          387,328    _blocks_blocks_6_conv_conv_2_PRelu_output_0_DequantizeLinear_Output   | -10,240(-100.0%)    -387,328(-100.0%)       
------ ----------------------------------------------------------------------------------------------------- ---------------------------- ---------------- ------------ ---------------------------------------------------------------------- --- ------------------- ----------------------- ----------------------------- 
224    _blocks_blocks_6_conv_conv_3_Conv_output_0_QuantizeLinear_Output (Conversion, QuantizeLinear)         [b:1,h:14,h:14,w:12,c:256]                          86,016                             _blocks_blocks_6_conv_conv_3_Conv_output_0   |                     -86,016(-100.0%)        
------ ----------------------------------------------------------------------------------------------------- ---------------------------- ---------------- ------------ ---------------------------------------------------------------------- --- ------------------- ----------------------- ----------------------------- 
225    _blocks_blocks_6_conv_conv_3_Conv_output_0_DequantizeLinear_Output (Conversion, DequantizeLinear)     [b:1,h:14,h:14,w:12,c:256]                          86,016       _blocks_blocks_6_conv_conv_3_Conv_output_0_QuantizeLinear_Output   |                     -86,016(-100.0%)        
------ ----------------------------------------------------------------------------------------------------- ---------------------------- ---------------- ------------ ---------------------------------------------------------------------- --- ------------------- ----------------------- ----------------------------- 
226    _blocks_blocks_6_conv_conv_5_PRelu_output_0 (Nonlinearity, PRelu)                                     [b:1,h:14,h:14,w:12,c:256]   256/1,024              86,016     _blocks_blocks_6_conv_conv_3_Conv_output_0_DequantizeLinear_Output   | +2,560(+250.0%)     +387,328(+450.3%)       conv2d_oi8[26]                
------ ----------------------------------------------------------------------------------------------------- ---------------------------- ---------------- ------------ ---------------------------------------------------------------------- --- ------------------- ----------------------- ----------------------------- 
227    _blocks_blocks_6_conv_conv_5_PRelu_output_0_QuantizeLinear_Output (Conversion, QuantizeLinear)        [b:1,h:14,h:14,w:12,c:256]                          86,016                            _blocks_blocks_6_conv_conv_5_PRelu_output_0   |                     -86,016(-100.0%)        
------ ----------------------------------------------------------------------------------------------------- ---------------------------- ---------------- ------------ ---------------------------------------------------------------------- --- ------------------- ----------------------- ----------------------------- 
228    _blocks_blocks_6_conv_conv_5_PRelu_output_0_DequantizeLinear_Output (Conversion, DequantizeLinear)    [b:1,h:14,h:14,w:12,c:256]                          86,016      _blocks_blocks_6_conv_conv_5_PRelu_output_0_QuantizeLinear_Output   |                     -86,016(-100.0%)        
------ ----------------------------------------------------------------------------------------------------- ---------------------------- ---------------- ------------ ---------------------------------------------------------------------- --- ------------------- ----------------------- ----------------------------- 
229    _blocks_blocks_6_conv_conv_6_Conv_output_0 (Conv2D, Conv)                                             [b:1,h:14,h:14,w:12,c:128]   32,896/131,584      5,505,152    _blocks_blocks_6_conv_conv_5_PRelu_output_0_DequantizeLinear_Output   | -98,304(-74.7%)                             conv2d_oi8[27]                
------ ----------------------------------------------------------------------------------------------------- ---------------------------- ---------------- ------------ ---------------------------------------------------------------------- --- ------------------- ----------------------- ----------------------------- 
230    _blocks_blocks_6_conv_conv_6_Conv_output_0_QuantizeLinear_Output (Conversion, QuantizeLinear)         [b:1,h:14,h:14,w:12,c:128]                          43,008                             _blocks_blocks_6_conv_conv_6_Conv_output_0   |                     -43,008(-100.0%)        
------ ----------------------------------------------------------------------------------------------------- ---------------------------- ---------------- ------------ ---------------------------------------------------------------------- --- ------------------- ----------------------- ----------------------------- 
231    _blocks_blocks_6_conv_conv_6_Conv_output_0_DequantizeLinear_Output (Conversion, DequantizeLinear)     [b:1,h:14,h:14,w:12,c:128]                          43,008       _blocks_blocks_6_conv_conv_6_Conv_output_0_QuantizeLinear_Output   |                     -43,008(-100.0%)        
------ ----------------------------------------------------------------------------------------------------- ---------------------------- ---------------- ------------ ---------------------------------------------------------------------- --- ------------------- ----------------------- ----------------------------- 
232    _blocks_blocks_6_Add_output_0 (Eltwise, Add)                                                          [b:1,h:14,h:14,w:12,c:128]                          21,504     _blocks_blocks_5_conv_conv_6_Conv_output_0_DequantizeLinear_Output   |                                             eltwise_integer/sum_oi8[28]   
                                                                                                                                                                            _blocks_blocks_6_conv_conv_6_Conv_output_0_DequantizeLinear_Output   | 
------ ----------------------------------------------------------------------------------------------------- ---------------------------- ---------------- ------------ ---------------------------------------------------------------------- --- ------------------- ----------------------- ----------------------------- 
233    _blocks_blocks_6_Add_output_0_QuantizeLinear_Output (Conversion, QuantizeLinear)                      [b:1,h:14,h:14,w:12,c:128]                          43,008                                          _blocks_blocks_6_Add_output_0   |                     -43,008(-100.0%)        
------ ----------------------------------------------------------------------------------------------------- ---------------------------- ---------------- ------------ ---------------------------------------------------------------------- --- ------------------- ----------------------- ----------------------------- 
234    _blocks_blocks_6_Add_output_0_DequantizeLinear_Output (Conversion, DequantizeLinear)                  [b:1,h:14,h:14,w:12,c:128]                          43,008                    _blocks_blocks_6_Add_output_0_QuantizeLinear_Output   |                     -43,008(-100.0%)        
------ ----------------------------------------------------------------------------------------------------- ---------------------------- ---------------- ------------ ---------------------------------------------------------------------- --- ------------------- ----------------------- ----------------------------- 
235    _blocks_blocks_7_conv_conv_0_Conv_output_0 (Conv2D, Conv)                                             [b:1,h:14,h:14,w:12,c:256]   33,024/132,096      5,505,280                  _blocks_blocks_6_Add_output_0_DequantizeLinear_Output   | -132,096(-100.0%)   -5,505,280(-100.0%)     
------ ----------------------------------------------------------------------------------------------------- ---------------------------- ---------------- ------------ ---------------------------------------------------------------------- --- ------------------- ----------------------- ----------------------------- 
236    _blocks_blocks_7_conv_conv_0_Conv_output_0_QuantizeLinear_Output (Conversion, QuantizeLinear)         [b:1,h:14,h:14,w:12,c:256]                          86,016                             _blocks_blocks_7_conv_conv_0_Conv_output_0   |                     -86,016(-100.0%)        
------ ----------------------------------------------------------------------------------------------------- ---------------------------- ---------------- ------------ ---------------------------------------------------------------------- --- ------------------- ----------------------- ----------------------------- 
237    _blocks_blocks_7_conv_conv_0_Conv_output_0_DequantizeLinear_Output (Conversion, DequantizeLinear)     [b:1,h:14,h:14,w:12,c:256]                          86,016       _blocks_blocks_7_conv_conv_0_Conv_output_0_QuantizeLinear_Output   |                     -86,016(-100.0%)        
------ ----------------------------------------------------------------------------------------------------- ---------------------------- ---------------- ------------ ---------------------------------------------------------------------- --- ------------------- ----------------------- ----------------------------- 
238    _blocks_blocks_7_conv_conv_2_PRelu_output_0 (Nonlinearity, PRelu)                                     [b:1,h:14,h:14,w:12,c:256]   256/1,024              86,016     _blocks_blocks_7_conv_conv_0_Conv_output_0_DequantizeLinear_Output   | +33,024(+3225.0%)   +5,505,280(+6400.3%)    conv2d_oi8[29]                
------ ----------------------------------------------------------------------------------------------------- ---------------------------- ---------------- ------------ ---------------------------------------------------------------------- --- ------------------- ----------------------- ----------------------------- 
239    _blocks_blocks_7_conv_conv_2_PRelu_output_0_QuantizeLinear_Output (Conversion, QuantizeLinear)        [b:1,h:14,h:14,w:12,c:256]                          86,016                            _blocks_blocks_7_conv_conv_2_PRelu_output_0   |                     -86,016(-100.0%)        
------ ----------------------------------------------------------------------------------------------------- ---------------------------- ---------------- ------------ ---------------------------------------------------------------------- --- ------------------- ----------------------- ----------------------------- 
240    _blocks_blocks_7_conv_conv_2_PRelu_output_0_DequantizeLinear_Output (Conversion, DequantizeLinear)    [b:1,h:14,h:14,w:12,c:256]                          86,016      _blocks_blocks_7_conv_conv_2_PRelu_output_0_QuantizeLinear_Output   |                     -86,016(-100.0%)        
------ ----------------------------------------------------------------------------------------------------- ---------------------------- ---------------- ------------ ---------------------------------------------------------------------- --- ------------------- ----------------------- ----------------------------- 
241    _blocks_blocks_7_conv_conv_3_Conv_output_0 (Conv2D, Conv)                                             [b:1,h:14,h:14,w:12,c:256]   2,560/10,240          387,328    _blocks_blocks_7_conv_conv_2_PRelu_output_0_DequantizeLinear_Output   | -10,240(-100.0%)    -387,328(-100.0%)       
------ ----------------------------------------------------------------------------------------------------- ---------------------------- ---------------- ------------ ---------------------------------------------------------------------- --- ------------------- ----------------------- ----------------------------- 
242    _blocks_blocks_7_conv_conv_3_Conv_output_0_QuantizeLinear_Output (Conversion, QuantizeLinear)         [b:1,h:14,h:14,w:12,c:256]                          86,016                             _blocks_blocks_7_conv_conv_3_Conv_output_0   |                     -86,016(-100.0%)        
------ ----------------------------------------------------------------------------------------------------- ---------------------------- ---------------- ------------ ---------------------------------------------------------------------- --- ------------------- ----------------------- ----------------------------- 
243    _blocks_blocks_7_conv_conv_3_Conv_output_0_DequantizeLinear_Output (Conversion, DequantizeLinear)     [b:1,h:14,h:14,w:12,c:256]                          86,016       _blocks_blocks_7_conv_conv_3_Conv_output_0_QuantizeLinear_Output   |                     -86,016(-100.0%)        
------ ----------------------------------------------------------------------------------------------------- ---------------------------- ---------------- ------------ ---------------------------------------------------------------------- --- ------------------- ----------------------- ----------------------------- 
244    _blocks_blocks_7_conv_conv_5_PRelu_output_0 (Nonlinearity, PRelu)                                     [b:1,h:14,h:14,w:12,c:256]   256/1,024              86,016     _blocks_blocks_7_conv_conv_3_Conv_output_0_DequantizeLinear_Output   | +2,560(+250.0%)     +387,328(+450.3%)       conv2d_oi8[30]                
------ ----------------------------------------------------------------------------------------------------- ---------------------------- ---------------- ------------ ---------------------------------------------------------------------- --- ------------------- ----------------------- ----------------------------- 
245    _blocks_blocks_7_conv_conv_5_PRelu_output_0_QuantizeLinear_Output (Conversion, QuantizeLinear)        [b:1,h:14,h:14,w:12,c:256]                          86,016                            _blocks_blocks_7_conv_conv_5_PRelu_output_0   |                     -86,016(-100.0%)        
------ ----------------------------------------------------------------------------------------------------- ---------------------------- ---------------- ------------ ---------------------------------------------------------------------- --- ------------------- ----------------------- ----------------------------- 
246    _blocks_blocks_7_conv_conv_5_PRelu_output_0_DequantizeLinear_Output (Conversion, DequantizeLinear)    [b:1,h:14,h:14,w:12,c:256]                          86,016      _blocks_blocks_7_conv_conv_5_PRelu_output_0_QuantizeLinear_Output   |                     -86,016(-100.0%)        
------ ----------------------------------------------------------------------------------------------------- ---------------------------- ---------------- ------------ ---------------------------------------------------------------------- --- ------------------- ----------------------- ----------------------------- 
247    _blocks_blocks_7_conv_conv_6_Conv_output_0 (Conv2D, Conv)                                             [b:1,h:14,h:14,w:12,c:128]   32,896/131,584      5,505,152    _blocks_blocks_7_conv_conv_5_PRelu_output_0_DequantizeLinear_Output   | -98,304(-74.7%)                             conv2d_oi8[31]                
------ ----------------------------------------------------------------------------------------------------- ---------------------------- ---------------- ------------ ---------------------------------------------------------------------- --- ------------------- ----------------------- ----------------------------- 
248    _blocks_blocks_7_conv_conv_6_Conv_output_0_QuantizeLinear_Output (Conversion, QuantizeLinear)         [b:1,h:14,h:14,w:12,c:128]                          43,008                             _blocks_blocks_7_conv_conv_6_Conv_output_0   |                     -43,008(-100.0%)        
------ ----------------------------------------------------------------------------------------------------- ---------------------------- ---------------- ------------ ---------------------------------------------------------------------- --- ------------------- ----------------------- ----------------------------- 
249    _blocks_blocks_7_conv_conv_6_Conv_output_0_DequantizeLinear_Output (Conversion, DequantizeLinear)     [b:1,h:14,h:14,w:12,c:128]                          43,008       _blocks_blocks_7_conv_conv_6_Conv_output_0_QuantizeLinear_Output   |                     -43,008(-100.0%)        
------ ----------------------------------------------------------------------------------------------------- ---------------------------- ---------------- ------------ ---------------------------------------------------------------------- --- ------------------- ----------------------- ----------------------------- 
250    _blocks_blocks_7_Add_output_0 (Eltwise, Add)                                                          [b:1,h:14,h:14,w:12,c:128]                          21,504                  _blocks_blocks_6_Add_output_0_DequantizeLinear_Output   |                                             eltwise_integer/sum_oi8[32]   
                                                                                                                                                                            _blocks_blocks_7_conv_conv_6_Conv_output_0_DequantizeLinear_Output   | 
------ ----------------------------------------------------------------------------------------------------- ---------------------------- ---------------- ------------ ---------------------------------------------------------------------- --- ------------------- ----------------------- ----------------------------- 
251    _blocks_blocks_7_Add_output_0_QuantizeLinear_Output (Conversion, QuantizeLinear)                      [b:1,h:14,h:14,w:12,c:128]                          43,008                                          _blocks_blocks_7_Add_output_0   |                     -43,008(-100.0%)        
------ ----------------------------------------------------------------------------------------------------- ---------------------------- ---------------- ------------ ---------------------------------------------------------------------- --- ------------------- ----------------------- ----------------------------- 
252    _blocks_blocks_7_Add_output_0_DequantizeLinear_Output (Conversion, DequantizeLinear)                  [b:1,h:14,h:14,w:12,c:128]                          43,008                    _blocks_blocks_7_Add_output_0_QuantizeLinear_Output   |                     -43,008(-100.0%)        
------ ----------------------------------------------------------------------------------------------------- ---------------------------- ---------------- ------------ ---------------------------------------------------------------------- --- ------------------- ----------------------- ----------------------------- 
253    _blocks_blocks_8_conv_conv_0_Conv_output_0 (Conv2D, Conv)                                             [b:1,h:14,h:14,w:12,c:256]   33,024/132,096      5,505,280                  _blocks_blocks_7_Add_output_0_DequantizeLinear_Output   | -132,096(-100.0%)   -5,505,280(-100.0%)     
------ ----------------------------------------------------------------------------------------------------- ---------------------------- ---------------- ------------ ---------------------------------------------------------------------- --- ------------------- ----------------------- ----------------------------- 
254    _blocks_blocks_8_conv_conv_0_Conv_output_0_QuantizeLinear_Output (Conversion, QuantizeLinear)         [b:1,h:14,h:14,w:12,c:256]                          86,016                             _blocks_blocks_8_conv_conv_0_Conv_output_0   |                     -86,016(-100.0%)        
------ ----------------------------------------------------------------------------------------------------- ---------------------------- ---------------- ------------ ---------------------------------------------------------------------- --- ------------------- ----------------------- ----------------------------- 
255    _blocks_blocks_8_conv_conv_0_Conv_output_0_DequantizeLinear_Output (Conversion, DequantizeLinear)     [b:1,h:14,h:14,w:12,c:256]                          86,016       _blocks_blocks_8_conv_conv_0_Conv_output_0_QuantizeLinear_Output   |                     -86,016(-100.0%)        
------ ----------------------------------------------------------------------------------------------------- ---------------------------- ---------------- ------------ ---------------------------------------------------------------------- --- ------------------- ----------------------- ----------------------------- 
256    _blocks_blocks_8_conv_conv_2_PRelu_output_0 (Nonlinearity, PRelu)                                     [b:1,h:14,h:14,w:12,c:256]   256/1,024              86,016     _blocks_blocks_8_conv_conv_0_Conv_output_0_DequantizeLinear_Output   | +33,024(+3225.0%)   +5,505,280(+6400.3%)    conv2d_oi8[33]                
------ ----------------------------------------------------------------------------------------------------- ---------------------------- ---------------- ------------ ---------------------------------------------------------------------- --- ------------------- ----------------------- ----------------------------- 
257    _blocks_blocks_8_conv_conv_2_PRelu_output_0_QuantizeLinear_Output (Conversion, QuantizeLinear)        [b:1,h:14,h:14,w:12,c:256]                          86,016                            _blocks_blocks_8_conv_conv_2_PRelu_output_0   |                     -86,016(-100.0%)        
------ ----------------------------------------------------------------------------------------------------- ---------------------------- ---------------- ------------ ---------------------------------------------------------------------- --- ------------------- ----------------------- ----------------------------- 
258    _blocks_blocks_8_conv_conv_2_PRelu_output_0_DequantizeLinear_Output (Conversion, DequantizeLinear)    [b:1,h:14,h:14,w:12,c:256]                          86,016      _blocks_blocks_8_conv_conv_2_PRelu_output_0_QuantizeLinear_Output   |                     -86,016(-100.0%)        
------ ----------------------------------------------------------------------------------------------------- ---------------------------- ---------------- ------------ ---------------------------------------------------------------------- --- ------------------- ----------------------- ----------------------------- 
259    _blocks_blocks_8_conv_conv_3_Conv_output_0 (Conv2D, Conv)                                             [b:1,h:14,h:14,w:12,c:256]   2,560/10,240          387,328    _blocks_blocks_8_conv_conv_2_PRelu_output_0_DequantizeLinear_Output   | -10,240(-100.0%)    -387,328(-100.0%)       
------ ----------------------------------------------------------------------------------------------------- ---------------------------- ---------------- ------------ ---------------------------------------------------------------------- --- ------------------- ----------------------- ----------------------------- 
260    _blocks_blocks_8_conv_conv_3_Conv_output_0_QuantizeLinear_Output (Conversion, QuantizeLinear)         [b:1,h:14,h:14,w:12,c:256]                          86,016                             _blocks_blocks_8_conv_conv_3_Conv_output_0   |                     -86,016(-100.0%)        
------ ----------------------------------------------------------------------------------------------------- ---------------------------- ---------------- ------------ ---------------------------------------------------------------------- --- ------------------- ----------------------- ----------------------------- 
261    _blocks_blocks_8_conv_conv_3_Conv_output_0_DequantizeLinear_Output (Conversion, DequantizeLinear)     [b:1,h:14,h:14,w:12,c:256]                          86,016       _blocks_blocks_8_conv_conv_3_Conv_output_0_QuantizeLinear_Output   |                     -86,016(-100.0%)        
------ ----------------------------------------------------------------------------------------------------- ---------------------------- ---------------- ------------ ---------------------------------------------------------------------- --- ------------------- ----------------------- ----------------------------- 
262    _blocks_blocks_8_conv_conv_5_PRelu_output_0 (Nonlinearity, PRelu)                                     [b:1,h:14,h:14,w:12,c:256]   256/1,024              86,016     _blocks_blocks_8_conv_conv_3_Conv_output_0_DequantizeLinear_Output   | +2,560(+250.0%)     +387,328(+450.3%)       conv2d_oi8[34]                
------ ----------------------------------------------------------------------------------------------------- ---------------------------- ---------------- ------------ ---------------------------------------------------------------------- --- ------------------- ----------------------- ----------------------------- 
263    _blocks_blocks_8_conv_conv_5_PRelu_output_0_QuantizeLinear_Output (Conversion, QuantizeLinear)        [b:1,h:14,h:14,w:12,c:256]                          86,016                            _blocks_blocks_8_conv_conv_5_PRelu_output_0   |                     -86,016(-100.0%)        
------ ----------------------------------------------------------------------------------------------------- ---------------------------- ---------------- ------------ ---------------------------------------------------------------------- --- ------------------- ----------------------- ----------------------------- 
264    _blocks_blocks_8_conv_conv_5_PRelu_output_0_DequantizeLinear_Output (Conversion, DequantizeLinear)    [b:1,h:14,h:14,w:12,c:256]                          86,016      _blocks_blocks_8_conv_conv_5_PRelu_output_0_QuantizeLinear_Output   |                     -86,016(-100.0%)        
------ ----------------------------------------------------------------------------------------------------- ---------------------------- ---------------- ------------ ---------------------------------------------------------------------- --- ------------------- ----------------------- ----------------------------- 
265    _blocks_blocks_8_conv_conv_6_Conv_output_0 (Conv2D, Conv)                                             [b:1,h:14,h:14,w:12,c:128]   32,896/131,584      5,505,152    _blocks_blocks_8_conv_conv_5_PRelu_output_0_DequantizeLinear_Output   | -98,304(-74.7%)                             conv2d_oi8[35]                
------ ----------------------------------------------------------------------------------------------------- ---------------------------- ---------------- ------------ ---------------------------------------------------------------------- --- ------------------- ----------------------- ----------------------------- 
266    _blocks_blocks_8_conv_conv_6_Conv_output_0_QuantizeLinear_Output (Conversion, QuantizeLinear)         [b:1,h:14,h:14,w:12,c:128]                          43,008                             _blocks_blocks_8_conv_conv_6_Conv_output_0   |                     -43,008(-100.0%)        
------ ----------------------------------------------------------------------------------------------------- ---------------------------- ---------------- ------------ ---------------------------------------------------------------------- --- ------------------- ----------------------- ----------------------------- 
267    _blocks_blocks_8_conv_conv_6_Conv_output_0_DequantizeLinear_Output (Conversion, DequantizeLinear)     [b:1,h:14,h:14,w:12,c:128]                          43,008       _blocks_blocks_8_conv_conv_6_Conv_output_0_QuantizeLinear_Output   |                     -43,008(-100.0%)        
------ ----------------------------------------------------------------------------------------------------- ---------------------------- ---------------- ------------ ---------------------------------------------------------------------- --- ------------------- ----------------------- ----------------------------- 
268    _blocks_blocks_8_Add_output_0 (Eltwise, Add)                                                          [b:1,h:14,h:14,w:12,c:128]                          21,504                  _blocks_blocks_7_Add_output_0_DequantizeLinear_Output   |                                             eltwise_integer/sum_oi8[36]   
                                                                                                                                                                            _blocks_blocks_8_conv_conv_6_Conv_output_0_DequantizeLinear_Output   | 
------ ----------------------------------------------------------------------------------------------------- ---------------------------- ---------------- ------------ ---------------------------------------------------------------------- --- ------------------- ----------------------- ----------------------------- 
269    _blocks_blocks_8_Add_output_0_QuantizeLinear_Output (Conversion, QuantizeLinear)                      [b:1,h:14,h:14,w:12,c:128]                          43,008                                          _blocks_blocks_8_Add_output_0   |                     -43,008(-100.0%)        
------ ----------------------------------------------------------------------------------------------------- ---------------------------- ---------------- ------------ ---------------------------------------------------------------------- --- ------------------- ----------------------- ----------------------------- 
270    _blocks_blocks_8_Add_output_0_DequantizeLinear_Output (Conversion, DequantizeLinear)                  [b:1,h:14,h:14,w:12,c:128]                          43,008                    _blocks_blocks_8_Add_output_0_QuantizeLinear_Output   |                     -43,008(-100.0%)        
------ ----------------------------------------------------------------------------------------------------- ---------------------------- ---------------- ------------ ---------------------------------------------------------------------- --- ------------------- ----------------------- ----------------------------- 
271    _blocks_blocks_9_conv_conv_0_Conv_output_0 (Conv2D, Conv)                                             [b:1,h:14,h:14,w:12,c:256]   33,024/132,096      5,505,280                  _blocks_blocks_8_Add_output_0_DequantizeLinear_Output   | -132,096(-100.0%)   -5,505,280(-100.0%)     
------ ----------------------------------------------------------------------------------------------------- ---------------------------- ---------------- ------------ ---------------------------------------------------------------------- --- ------------------- ----------------------- ----------------------------- 
272    _blocks_blocks_9_conv_conv_0_Conv_output_0_QuantizeLinear_Output (Conversion, QuantizeLinear)         [b:1,h:14,h:14,w:12,c:256]                          86,016                             _blocks_blocks_9_conv_conv_0_Conv_output_0   |                     -86,016(-100.0%)        
------ ----------------------------------------------------------------------------------------------------- ---------------------------- ---------------- ------------ ---------------------------------------------------------------------- --- ------------------- ----------------------- ----------------------------- 
273    _blocks_blocks_9_conv_conv_0_Conv_output_0_DequantizeLinear_Output (Conversion, DequantizeLinear)     [b:1,h:14,h:14,w:12,c:256]                          86,016       _blocks_blocks_9_conv_conv_0_Conv_output_0_QuantizeLinear_Output   |                     -86,016(-100.0%)        
------ ----------------------------------------------------------------------------------------------------- ---------------------------- ---------------- ------------ ---------------------------------------------------------------------- --- ------------------- ----------------------- ----------------------------- 
274    _blocks_blocks_9_conv_conv_2_PRelu_output_0 (Nonlinearity, PRelu)                                     [b:1,h:14,h:14,w:12,c:256]   256/1,024              86,016     _blocks_blocks_9_conv_conv_0_Conv_output_0_DequantizeLinear_Output   | +33,024(+3225.0%)   +5,505,280(+6400.3%)    conv2d_oi8[37]                
------ ----------------------------------------------------------------------------------------------------- ---------------------------- ---------------- ------------ ---------------------------------------------------------------------- --- ------------------- ----------------------- ----------------------------- 
275    _blocks_blocks_9_conv_conv_2_PRelu_output_0_QuantizeLinear_Output (Conversion, QuantizeLinear)        [b:1,h:14,h:14,w:12,c:256]                          86,016                            _blocks_blocks_9_conv_conv_2_PRelu_output_0   |                     -86,016(-100.0%)        
------ ----------------------------------------------------------------------------------------------------- ---------------------------- ---------------- ------------ ---------------------------------------------------------------------- --- ------------------- ----------------------- ----------------------------- 
276    _blocks_blocks_9_conv_conv_2_PRelu_output_0_DequantizeLinear_Output (Conversion, DequantizeLinear)    [b:1,h:14,h:14,w:12,c:256]                          86,016      _blocks_blocks_9_conv_conv_2_PRelu_output_0_QuantizeLinear_Output   |                     -86,016(-100.0%)        
------ ----------------------------------------------------------------------------------------------------- ---------------------------- ---------------- ------------ ---------------------------------------------------------------------- --- ------------------- ----------------------- ----------------------------- 
277    _blocks_blocks_9_conv_conv_3_Conv_output_0 (Conv2D, Conv)                                             [b:1,h:14,h:14,w:12,c:256]   2,560/10,240          387,328    _blocks_blocks_9_conv_conv_2_PRelu_output_0_DequantizeLinear_Output   | -10,240(-100.0%)    -387,328(-100.0%)       
------ ----------------------------------------------------------------------------------------------------- ---------------------------- ---------------- ------------ ---------------------------------------------------------------------- --- ------------------- ----------------------- ----------------------------- 
278    _blocks_blocks_9_conv_conv_3_Conv_output_0_QuantizeLinear_Output (Conversion, QuantizeLinear)         [b:1,h:14,h:14,w:12,c:256]                          86,016                             _blocks_blocks_9_conv_conv_3_Conv_output_0   |                     -86,016(-100.0%)        
------ ----------------------------------------------------------------------------------------------------- ---------------------------- ---------------- ------------ ---------------------------------------------------------------------- --- ------------------- ----------------------- ----------------------------- 
279    _blocks_blocks_9_conv_conv_3_Conv_output_0_DequantizeLinear_Output (Conversion, DequantizeLinear)     [b:1,h:14,h:14,w:12,c:256]                          86,016       _blocks_blocks_9_conv_conv_3_Conv_output_0_QuantizeLinear_Output   |                     -86,016(-100.0%)        
------ ----------------------------------------------------------------------------------------------------- ---------------------------- ---------------- ------------ ---------------------------------------------------------------------- --- ------------------- ----------------------- ----------------------------- 
280    _blocks_blocks_9_conv_conv_5_PRelu_output_0 (Nonlinearity, PRelu)                                     [b:1,h:14,h:14,w:12,c:256]   256/1,024              86,016     _blocks_blocks_9_conv_conv_3_Conv_output_0_DequantizeLinear_Output   | +2,560(+250.0%)     +387,328(+450.3%)       conv2d_oi8[38]                
------ ----------------------------------------------------------------------------------------------------- ---------------------------- ---------------- ------------ ---------------------------------------------------------------------- --- ------------------- ----------------------- ----------------------------- 
281    _blocks_blocks_9_conv_conv_5_PRelu_output_0_QuantizeLinear_Output (Conversion, QuantizeLinear)        [b:1,h:14,h:14,w:12,c:256]                          86,016                            _blocks_blocks_9_conv_conv_5_PRelu_output_0   |                     -86,016(-100.0%)        
------ ----------------------------------------------------------------------------------------------------- ---------------------------- ---------------- ------------ ---------------------------------------------------------------------- --- ------------------- ----------------------- ----------------------------- 
282    _blocks_blocks_9_conv_conv_5_PRelu_output_0_DequantizeLinear_Output (Conversion, DequantizeLinear)    [b:1,h:14,h:14,w:12,c:256]                          86,016      _blocks_blocks_9_conv_conv_5_PRelu_output_0_QuantizeLinear_Output   |                     -86,016(-100.0%)        
------ ----------------------------------------------------------------------------------------------------- ---------------------------- ---------------- ------------ ---------------------------------------------------------------------- --- ------------------- ----------------------- ----------------------------- 
283    _blocks_blocks_9_conv_conv_6_Conv_output_0 (Conv2D, Conv)                                             [b:1,h:14,h:14,w:12,c:128]   32,896/131,584      5,505,152    _blocks_blocks_9_conv_conv_5_PRelu_output_0_DequantizeLinear_Output   | -98,304(-74.7%)                             conv2d_oi8[39]                
------ ----------------------------------------------------------------------------------------------------- ---------------------------- ---------------- ------------ ---------------------------------------------------------------------- --- ------------------- ----------------------- ----------------------------- 
284    _blocks_blocks_9_conv_conv_6_Conv_output_0_QuantizeLinear_Output (Conversion, QuantizeLinear)         [b:1,h:14,h:14,w:12,c:128]                          43,008                             _blocks_blocks_9_conv_conv_6_Conv_output_0   |                     -43,008(-100.0%)        
------ ----------------------------------------------------------------------------------------------------- ---------------------------- ---------------- ------------ ---------------------------------------------------------------------- --- ------------------- ----------------------- ----------------------------- 
285    _blocks_blocks_9_conv_conv_6_Conv_output_0_DequantizeLinear_Output (Conversion, DequantizeLinear)     [b:1,h:14,h:14,w:12,c:128]                          43,008       _blocks_blocks_9_conv_conv_6_Conv_output_0_QuantizeLinear_Output   |                     -43,008(-100.0%)        
------ ----------------------------------------------------------------------------------------------------- ---------------------------- ---------------- ------------ ---------------------------------------------------------------------- --- ------------------- ----------------------- ----------------------------- 
286    _blocks_blocks_9_Add_output_0 (Eltwise, Add)                                                          [b:1,h:14,h:14,w:12,c:128]                          21,504                  _blocks_blocks_8_Add_output_0_DequantizeLinear_Output   |                                             eltwise_integer/sum_oi8[40]   
                                                                                                                                                                            _blocks_blocks_9_conv_conv_6_Conv_output_0_DequantizeLinear_Output   | 
------ ----------------------------------------------------------------------------------------------------- ---------------------------- ---------------- ------------ ---------------------------------------------------------------------- --- ------------------- ----------------------- ----------------------------- 
287    _blocks_blocks_9_Add_output_0_QuantizeLinear_Output (Conversion, QuantizeLinear)                      [b:1,h:14,h:14,w:12,c:128]                          43,008                                          _blocks_blocks_9_Add_output_0   |                     -43,008(-100.0%)        
------ ----------------------------------------------------------------------------------------------------- ---------------------------- ---------------- ------------ ---------------------------------------------------------------------- --- ------------------- ----------------------- ----------------------------- 
288    _blocks_blocks_9_Add_output_0_DequantizeLinear_Output (Conversion, DequantizeLinear)                  [b:1,h:14,h:14,w:12,c:128]                          43,008                    _blocks_blocks_9_Add_output_0_QuantizeLinear_Output   |                     -43,008(-100.0%)        
------ ----------------------------------------------------------------------------------------------------- ---------------------------- ---------------- ------------ ---------------------------------------------------------------------- --- ------------------- ----------------------- ----------------------------- 
289    _blocks_blocks_10_conv_conv_0_Conv_output_0 (Conv2D, Conv)                                            [b:1,h:14,h:14,w:12,c:256]   33,024/132,096      5,505,280                  _blocks_blocks_9_Add_output_0_DequantizeLinear_Output   | -132,096(-100.0%)   -5,505,280(-100.0%)     
------ ----------------------------------------------------------------------------------------------------- ---------------------------- ---------------- ------------ ---------------------------------------------------------------------- --- ------------------- ----------------------- ----------------------------- 
290    _blocks_blocks_10_conv_conv_0_Conv_output_0_QuantizeLinear_Output (Conversion, QuantizeLinear)        [b:1,h:14,h:14,w:12,c:256]                          86,016                            _blocks_blocks_10_conv_conv_0_Conv_output_0   |                     -86,016(-100.0%)        
------ ----------------------------------------------------------------------------------------------------- ---------------------------- ---------------- ------------ ---------------------------------------------------------------------- --- ------------------- ----------------------- ----------------------------- 
291    _blocks_blocks_10_conv_conv_0_Conv_output_0_DequantizeLinear_Output (Conversion, DequantizeLinear)    [b:1,h:14,h:14,w:12,c:256]                          86,016      _blocks_blocks_10_conv_conv_0_Conv_output_0_QuantizeLinear_Output   |                     -86,016(-100.0%)        
------ ----------------------------------------------------------------------------------------------------- ---------------------------- ---------------- ------------ ---------------------------------------------------------------------- --- ------------------- ----------------------- ----------------------------- 
292    _blocks_blocks_10_conv_conv_2_PRelu_output_0 (Nonlinearity, PRelu)                                    [b:1,h:14,h:14,w:12,c:256]   256/1,024              86,016    _blocks_blocks_10_conv_conv_0_Conv_output_0_DequantizeLinear_Output   | +33,024(+3225.0%)   +5,505,280(+6400.3%)    conv2d_oi8[41]                
------ ----------------------------------------------------------------------------------------------------- ---------------------------- ---------------- ------------ ---------------------------------------------------------------------- --- ------------------- ----------------------- ----------------------------- 
293    _blocks_blocks_10_conv_conv_2_PRelu_output_0_QuantizeLinear_Output (Conversion, QuantizeLinear)       [b:1,h:14,h:14,w:12,c:256]                          86,016                           _blocks_blocks_10_conv_conv_2_PRelu_output_0   |                     -86,016(-100.0%)        
------ ----------------------------------------------------------------------------------------------------- ---------------------------- ---------------- ------------ ---------------------------------------------------------------------- --- ------------------- ----------------------- ----------------------------- 
294    _blocks_blocks_10_conv_conv_2_PRelu_output_0_DequantizeLinear_Output (Conversion, DequantizeLinear)   [b:1,h:14,h:14,w:12,c:256]                          86,016     _blocks_blocks_10_conv_conv_2_PRelu_output_0_QuantizeLinear_Output   |                     -86,016(-100.0%)        
------ ----------------------------------------------------------------------------------------------------- ---------------------------- ---------------- ------------ ---------------------------------------------------------------------- --- ------------------- ----------------------- ----------------------------- 
295    _blocks_blocks_10_conv_conv_3_Conv_output_0 (Conv2D, Conv)                                            [b:1,h:14,h:14,w:12,c:256]   2,560/10,240          387,328   _blocks_blocks_10_conv_conv_2_PRelu_output_0_DequantizeLinear_Output   | -10,240(-100.0%)    -387,328(-100.0%)       
------ ----------------------------------------------------------------------------------------------------- ---------------------------- ---------------- ------------ ---------------------------------------------------------------------- --- ------------------- ----------------------- ----------------------------- 
296    _blocks_blocks_10_conv_conv_3_Conv_output_0_QuantizeLinear_Output (Conversion, QuantizeLinear)        [b:1,h:14,h:14,w:12,c:256]                          86,016                            _blocks_blocks_10_conv_conv_3_Conv_output_0   |                     -86,016(-100.0%)        
------ ----------------------------------------------------------------------------------------------------- ---------------------------- ---------------- ------------ ---------------------------------------------------------------------- --- ------------------- ----------------------- ----------------------------- 
297    _blocks_blocks_10_conv_conv_3_Conv_output_0_DequantizeLinear_Output (Conversion, DequantizeLinear)    [b:1,h:14,h:14,w:12,c:256]                          86,016      _blocks_blocks_10_conv_conv_3_Conv_output_0_QuantizeLinear_Output   |                     -86,016(-100.0%)        
------ ----------------------------------------------------------------------------------------------------- ---------------------------- ---------------- ------------ ---------------------------------------------------------------------- --- ------------------- ----------------------- ----------------------------- 
298    _blocks_blocks_10_conv_conv_5_PRelu_output_0 (Nonlinearity, PRelu)                                    [b:1,h:14,h:14,w:12,c:256]   256/1,024              86,016    _blocks_blocks_10_conv_conv_3_Conv_output_0_DequantizeLinear_Output   | +2,560(+250.0%)     +387,328(+450.3%)       conv2d_oi8[42]                
------ ----------------------------------------------------------------------------------------------------- ---------------------------- ---------------- ------------ ---------------------------------------------------------------------- --- ------------------- ----------------------- ----------------------------- 
299    _blocks_blocks_10_conv_conv_5_PRelu_output_0_QuantizeLinear_Output (Conversion, QuantizeLinear)       [b:1,h:14,h:14,w:12,c:256]                          86,016                           _blocks_blocks_10_conv_conv_5_PRelu_output_0   |                     -86,016(-100.0%)        
------ ----------------------------------------------------------------------------------------------------- ---------------------------- ---------------- ------------ ---------------------------------------------------------------------- --- ------------------- ----------------------- ----------------------------- 
300    _blocks_blocks_10_conv_conv_5_PRelu_output_0_DequantizeLinear_Output (Conversion, DequantizeLinear)   [b:1,h:14,h:14,w:12,c:256]                          86,016     _blocks_blocks_10_conv_conv_5_PRelu_output_0_QuantizeLinear_Output   |                     -86,016(-100.0%)        
------ ----------------------------------------------------------------------------------------------------- ---------------------------- ---------------- ------------ ---------------------------------------------------------------------- --- ------------------- ----------------------- ----------------------------- 
301    _blocks_blocks_10_conv_conv_6_Conv_output_0 (Conv2D, Conv)                                            [b:1,h:14,h:14,w:12,c:128]   32,896/131,584      5,505,152   _blocks_blocks_10_conv_conv_5_PRelu_output_0_DequantizeLinear_Output   | -98,304(-74.7%)                             conv2d_oi8[43]                
------ ----------------------------------------------------------------------------------------------------- ---------------------------- ---------------- ------------ ---------------------------------------------------------------------- --- ------------------- ----------------------- ----------------------------- 
302    _blocks_blocks_10_conv_conv_6_Conv_output_0_QuantizeLinear_Output (Conversion, QuantizeLinear)        [b:1,h:14,h:14,w:12,c:128]                          43,008                            _blocks_blocks_10_conv_conv_6_Conv_output_0   |                     -43,008(-100.0%)        
------ ----------------------------------------------------------------------------------------------------- ---------------------------- ---------------- ------------ ---------------------------------------------------------------------- --- ------------------- ----------------------- ----------------------------- 
303    _blocks_blocks_10_conv_conv_6_Conv_output_0_DequantizeLinear_Output (Conversion, DequantizeLinear)    [b:1,h:14,h:14,w:12,c:128]                          43,008      _blocks_blocks_10_conv_conv_6_Conv_output_0_QuantizeLinear_Output   |                     -43,008(-100.0%)        
------ ----------------------------------------------------------------------------------------------------- ---------------------------- ---------------- ------------ ---------------------------------------------------------------------- --- ------------------- ----------------------- ----------------------------- 
304    _blocks_blocks_10_Add_output_0 (Eltwise, Add)                                                         [b:1,h:14,h:14,w:12,c:128]                          21,504                  _blocks_blocks_9_Add_output_0_DequantizeLinear_Output   |                                             eltwise_integer/sum_oi8[44]   
                                                                                                                                                                           _blocks_blocks_10_conv_conv_6_Conv_output_0_DequantizeLinear_Output   | 
------ ----------------------------------------------------------------------------------------------------- ---------------------------- ---------------- ------------ ---------------------------------------------------------------------- --- ------------------- ----------------------- ----------------------------- 
305    _blocks_blocks_10_Add_output_0_QuantizeLinear_Output (Conversion, QuantizeLinear)                     [b:1,h:14,h:14,w:12,c:128]                          43,008                                         _blocks_blocks_10_Add_output_0   |                     -43,008(-100.0%)        
------ ----------------------------------------------------------------------------------------------------- ---------------------------- ---------------- ------------ ---------------------------------------------------------------------- --- ------------------- ----------------------- ----------------------------- 
306    _blocks_blocks_10_Add_output_0_DequantizeLinear_Output (Conversion, DequantizeLinear)                 [b:1,h:14,h:14,w:12,c:128]                          43,008                   _blocks_blocks_10_Add_output_0_QuantizeLinear_Output   |                     -43,008(-100.0%)        
------ ----------------------------------------------------------------------------------------------------- ---------------------------- ---------------- ------------ ---------------------------------------------------------------------- --- ------------------- ----------------------- ----------------------------- 
307    _blocks_blocks_11_conv_conv_0_Conv_output_0 (Conv2D, Conv)                                            [b:1,h:14,h:14,w:12,c:256]   33,024/132,096      5,505,280                 _blocks_blocks_10_Add_output_0_DequantizeLinear_Output   | -132,096(-100.0%)   -5,505,280(-100.0%)     
------ ----------------------------------------------------------------------------------------------------- ---------------------------- ---------------- ------------ ---------------------------------------------------------------------- --- ------------------- ----------------------- ----------------------------- 
308    _blocks_blocks_11_conv_conv_0_Conv_output_0_QuantizeLinear_Output (Conversion, QuantizeLinear)        [b:1,h:14,h:14,w:12,c:256]                          86,016                            _blocks_blocks_11_conv_conv_0_Conv_output_0   |                     -86,016(-100.0%)        
------ ----------------------------------------------------------------------------------------------------- ---------------------------- ---------------- ------------ ---------------------------------------------------------------------- --- ------------------- ----------------------- ----------------------------- 
309    _blocks_blocks_11_conv_conv_0_Conv_output_0_DequantizeLinear_Output (Conversion, DequantizeLinear)    [b:1,h:14,h:14,w:12,c:256]                          86,016      _blocks_blocks_11_conv_conv_0_Conv_output_0_QuantizeLinear_Output   |                     -86,016(-100.0%)        
------ ----------------------------------------------------------------------------------------------------- ---------------------------- ---------------- ------------ ---------------------------------------------------------------------- --- ------------------- ----------------------- ----------------------------- 
310    _blocks_blocks_11_conv_conv_2_PRelu_output_0 (Nonlinearity, PRelu)                                    [b:1,h:14,h:14,w:12,c:256]   256/1,024              86,016    _blocks_blocks_11_conv_conv_0_Conv_output_0_DequantizeLinear_Output   | +33,024(+3225.0%)   +5,505,280(+6400.3%)    conv2d_oi8[45]                
------ ----------------------------------------------------------------------------------------------------- ---------------------------- ---------------- ------------ ---------------------------------------------------------------------- --- ------------------- ----------------------- ----------------------------- 
311    _blocks_blocks_11_conv_conv_2_PRelu_output_0_QuantizeLinear_Output (Conversion, QuantizeLinear)       [b:1,h:14,h:14,w:12,c:256]                          86,016                           _blocks_blocks_11_conv_conv_2_PRelu_output_0   |                     -86,016(-100.0%)        
------ ----------------------------------------------------------------------------------------------------- ---------------------------- ---------------- ------------ ---------------------------------------------------------------------- --- ------------------- ----------------------- ----------------------------- 
312    _blocks_blocks_11_conv_conv_2_PRelu_output_0_DequantizeLinear_Output (Conversion, DequantizeLinear)   [b:1,h:14,h:14,w:12,c:256]                          86,016     _blocks_blocks_11_conv_conv_2_PRelu_output_0_QuantizeLinear_Output   |                     -86,016(-100.0%)        
------ ----------------------------------------------------------------------------------------------------- ---------------------------- ---------------- ------------ ---------------------------------------------------------------------- --- ------------------- ----------------------- ----------------------------- 
313    _blocks_blocks_11_conv_conv_3_Conv_output_0 (Conv2D, Conv)                                            [b:1,h:14,h:14,w:12,c:256]   2,560/10,240          387,328   _blocks_blocks_11_conv_conv_2_PRelu_output_0_DequantizeLinear_Output   | -10,240(-100.0%)    -387,328(-100.0%)       
------ ----------------------------------------------------------------------------------------------------- ---------------------------- ---------------- ------------ ---------------------------------------------------------------------- --- ------------------- ----------------------- ----------------------------- 
314    _blocks_blocks_11_conv_conv_3_Conv_output_0_QuantizeLinear_Output (Conversion, QuantizeLinear)        [b:1,h:14,h:14,w:12,c:256]                          86,016                            _blocks_blocks_11_conv_conv_3_Conv_output_0   |                     -86,016(-100.0%)        
------ ----------------------------------------------------------------------------------------------------- ---------------------------- ---------------- ------------ ---------------------------------------------------------------------- --- ------------------- ----------------------- ----------------------------- 
315    _blocks_blocks_11_conv_conv_3_Conv_output_0_DequantizeLinear_Output (Conversion, DequantizeLinear)    [b:1,h:14,h:14,w:12,c:256]                          86,016      _blocks_blocks_11_conv_conv_3_Conv_output_0_QuantizeLinear_Output   |                     -86,016(-100.0%)        
------ ----------------------------------------------------------------------------------------------------- ---------------------------- ---------------- ------------ ---------------------------------------------------------------------- --- ------------------- ----------------------- ----------------------------- 
316    _blocks_blocks_11_conv_conv_5_PRelu_output_0 (Nonlinearity, PRelu)                                    [b:1,h:14,h:14,w:12,c:256]   256/1,024              86,016    _blocks_blocks_11_conv_conv_3_Conv_output_0_DequantizeLinear_Output   | +2,560(+250.0%)     +387,328(+450.3%)       conv2d_oi8[46]                
------ ----------------------------------------------------------------------------------------------------- ---------------------------- ---------------- ------------ ---------------------------------------------------------------------- --- ------------------- ----------------------- ----------------------------- 
317    _blocks_blocks_11_conv_conv_5_PRelu_output_0_QuantizeLinear_Output (Conversion, QuantizeLinear)       [b:1,h:14,h:14,w:12,c:256]                          86,016                           _blocks_blocks_11_conv_conv_5_PRelu_output_0   |                     -86,016(-100.0%)        
------ ----------------------------------------------------------------------------------------------------- ---------------------------- ---------------- ------------ ---------------------------------------------------------------------- --- ------------------- ----------------------- ----------------------------- 
318    _blocks_blocks_11_conv_conv_5_PRelu_output_0_DequantizeLinear_Output (Conversion, DequantizeLinear)   [b:1,h:14,h:14,w:12,c:256]                          86,016     _blocks_blocks_11_conv_conv_5_PRelu_output_0_QuantizeLinear_Output   |                     -86,016(-100.0%)        
------ ----------------------------------------------------------------------------------------------------- ---------------------------- ---------------- ------------ ---------------------------------------------------------------------- --- ------------------- ----------------------- ----------------------------- 
319    _blocks_blocks_11_conv_conv_6_Conv_output_0 (Conv2D, Conv)                                            [b:1,h:14,h:14,w:12,c:128]   32,896/131,584      5,505,152   _blocks_blocks_11_conv_conv_5_PRelu_output_0_DequantizeLinear_Output   | -98,304(-74.7%)                             conv2d_oi8[47]                
------ ----------------------------------------------------------------------------------------------------- ---------------------------- ---------------- ------------ ---------------------------------------------------------------------- --- ------------------- ----------------------- ----------------------------- 
320    _blocks_blocks_11_conv_conv_6_Conv_output_0_QuantizeLinear_Output (Conversion, QuantizeLinear)        [b:1,h:14,h:14,w:12,c:128]                          43,008                            _blocks_blocks_11_conv_conv_6_Conv_output_0   |                     -43,008(-100.0%)        
------ ----------------------------------------------------------------------------------------------------- ---------------------------- ---------------- ------------ ---------------------------------------------------------------------- --- ------------------- ----------------------- ----------------------------- 
321    _blocks_blocks_11_conv_conv_6_Conv_output_0_DequantizeLinear_Output (Conversion, DequantizeLinear)    [b:1,h:14,h:14,w:12,c:128]                          43,008      _blocks_blocks_11_conv_conv_6_Conv_output_0_QuantizeLinear_Output   |                     -43,008(-100.0%)        
------ ----------------------------------------------------------------------------------------------------- ---------------------------- ---------------- ------------ ---------------------------------------------------------------------- --- ------------------- ----------------------- ----------------------------- 
322    _blocks_blocks_11_Add_output_0 (Eltwise, Add)                                                         [b:1,h:14,h:14,w:12,c:128]                          21,504                 _blocks_blocks_10_Add_output_0_DequantizeLinear_Output   |                                             eltwise_integer/sum_oi8[48]   
                                                                                                                                                                           _blocks_blocks_11_conv_conv_6_Conv_output_0_DequantizeLinear_Output   | 
------ ----------------------------------------------------------------------------------------------------- ---------------------------- ---------------- ------------ ---------------------------------------------------------------------- --- ------------------- ----------------------- ----------------------------- 
323    _blocks_blocks_11_Add_output_0_QuantizeLinear_Output (Conversion, QuantizeLinear)                     [b:1,h:14,h:14,w:12,c:128]                          43,008                                         _blocks_blocks_11_Add_output_0   |                     -43,008(-100.0%)        
------ ----------------------------------------------------------------------------------------------------- ---------------------------- ---------------- ------------ ---------------------------------------------------------------------- --- ------------------- ----------------------- ----------------------------- 
324    _blocks_blocks_11_Add_output_0_DequantizeLinear_Output (Conversion, DequantizeLinear)                 [b:1,h:14,h:14,w:12,c:128]                          43,008                   _blocks_blocks_11_Add_output_0_QuantizeLinear_Output   |                     -43,008(-100.0%)        
------ ----------------------------------------------------------------------------------------------------- ---------------------------- ---------------- ------------ ---------------------------------------------------------------------- --- ------------------- ----------------------- ----------------------------- 
325    _blocks_blocks_12_conv_conv_0_Conv_output_0 (Conv2D, Conv)                                            [b:1,h:14,h:14,w:12,c:512]   66,048/264,192     11,010,560                 _blocks_blocks_11_Add_output_0_DequantizeLinear_Output   | -264,192(-100.0%)   -11,010,560(-100.0%)    
------ ----------------------------------------------------------------------------------------------------- ---------------------------- ---------------- ------------ ---------------------------------------------------------------------- --- ------------------- ----------------------- ----------------------------- 
326    _blocks_blocks_12_conv_conv_0_Conv_output_0_QuantizeLinear_Output (Conversion, QuantizeLinear)        [b:1,h:14,h:14,w:12,c:512]                         172,032                            _blocks_blocks_12_conv_conv_0_Conv_output_0   |                     -172,032(-100.0%)       
------ ----------------------------------------------------------------------------------------------------- ---------------------------- ---------------- ------------ ---------------------------------------------------------------------- --- ------------------- ----------------------- ----------------------------- 
327    _blocks_blocks_12_conv_conv_0_Conv_output_0_DequantizeLinear_Output (Conversion, DequantizeLinear)    [b:1,h:14,h:14,w:12,c:512]                         172,032      _blocks_blocks_12_conv_conv_0_Conv_output_0_QuantizeLinear_Output   |                     -172,032(-100.0%)       
------ ----------------------------------------------------------------------------------------------------- ---------------------------- ---------------- ------------ ---------------------------------------------------------------------- --- ------------------- ----------------------- ----------------------------- 
328    _blocks_blocks_12_conv_conv_2_PRelu_output_0 (Nonlinearity, PRelu)                                    [b:1,h:14,h:14,w:12,c:512]   512/2,048             172,032    _blocks_blocks_12_conv_conv_0_Conv_output_0_DequantizeLinear_Output   | +66,048(+3225.0%)   +11,010,560(+6400.3%)   conv2d_oi8[49]                
------ ----------------------------------------------------------------------------------------------------- ---------------------------- ---------------- ------------ ---------------------------------------------------------------------- --- ------------------- ----------------------- ----------------------------- 
329    _blocks_blocks_12_conv_conv_2_PRelu_output_0_QuantizeLinear_Output (Conversion, QuantizeLinear)       [b:1,h:14,h:14,w:12,c:512]                         172,032                           _blocks_blocks_12_conv_conv_2_PRelu_output_0   |                     -172,032(-100.0%)       
------ ----------------------------------------------------------------------------------------------------- ---------------------------- ---------------- ------------ ---------------------------------------------------------------------- --- ------------------- ----------------------- ----------------------------- 
330    _blocks_blocks_12_conv_conv_2_PRelu_output_0_DequantizeLinear_Output (Conversion, DequantizeLinear)   [b:1,h:14,h:14,w:12,c:512]                         172,032     _blocks_blocks_12_conv_conv_2_PRelu_output_0_QuantizeLinear_Output   |                     -172,032(-100.0%)       
------ ----------------------------------------------------------------------------------------------------- ---------------------------- ---------------- ------------ ---------------------------------------------------------------------- --- ------------------- ----------------------- ----------------------------- 
331    _blocks_blocks_12_conv_conv_3_Conv_output_0 (Conv2D, Conv)                                            [b:1,h:7,h:7,w:6,c:512]      5,120/20,480          194,048   _blocks_blocks_12_conv_conv_2_PRelu_output_0_DequantizeLinear_Output   | -20,480(-100.0%)    -194,048(-100.0%)       
------ ----------------------------------------------------------------------------------------------------- ---------------------------- ---------------- ------------ ---------------------------------------------------------------------- --- ------------------- ----------------------- ----------------------------- 
332    _blocks_blocks_12_conv_conv_3_Conv_output_0_QuantizeLinear_Output (Conversion, QuantizeLinear)        [b:1,h:7,h:7,w:6,c:512]                             43,008                            _blocks_blocks_12_conv_conv_3_Conv_output_0   |                     -43,008(-100.0%)        
------ ----------------------------------------------------------------------------------------------------- ---------------------------- ---------------- ------------ ---------------------------------------------------------------------- --- ------------------- ----------------------- ----------------------------- 
333    _blocks_blocks_12_conv_conv_3_Conv_output_0_DequantizeLinear_Output (Conversion, DequantizeLinear)    [b:1,h:7,h:7,w:6,c:512]                             43,008      _blocks_blocks_12_conv_conv_3_Conv_output_0_QuantizeLinear_Output   |                     -43,008(-100.0%)        
------ ----------------------------------------------------------------------------------------------------- ---------------------------- ---------------- ------------ ---------------------------------------------------------------------- --- ------------------- ----------------------- ----------------------------- 
…
                                                                                                     W: _blocks_blocks_8_conv_conv_3_Conv_output_0_alpha       (256,1,1) (211)       
                                                                                                     O: _blocks_blocks_8_conv_conv_3_Conv_output_0_output      (1,14,12,256) (53)    
------ --------------------------------------------- ----- ---------------------- ---------- ------- --------------------------------------------------------- --------------------- 
35     _blocks_blocks_8_conv_conv_6_Conv_output_0    265   conv2d                 5505152    33280   I: _blocks_blocks_8_conv_conv_3_Conv_output_0_output      (1,14,12,256) (53)    
                                                                                                     S: _blocks_blocks_8_conv_conv_6_Conv_output_0_scratch0                          
                                                                                                     W: _blocks_blocks_8_conv_conv_6_Conv_output_0_weights     (256,1,1,128) (213)   
                                                                                                     W: _blocks_blocks_8_conv_conv_6_Conv_output_0_bias        (128,) (214)          
                                                                                                     O: _blocks_blocks_8_conv_conv_6_Conv_output_0_output      (1,14,12,128) (54)    
------ --------------------------------------------- ----- ---------------------- ---------- ------- --------------------------------------------------------- --------------------- 
36     _blocks_blocks_8_Add_output_0                 268   eltwise_integer/sum    21504      0       I: _blocks_blocks_7_Add_output_0_output                   (1,14,12,128) (50)    
                                                                                                     I: _blocks_blocks_8_conv_conv_6_Conv_output_0_output      (1,14,12,128) (54)    
                                                                                                     O: _blocks_blocks_8_Add_output_0_output                   (1,14,12,128) (55)    
------ --------------------------------------------- ----- ---------------------- ---------- ------- --------------------------------------------------------- --------------------- 
37     _blocks_blocks_9_conv_conv_0_Conv_output_0    274   conv2d                 5591296    34048   I: _blocks_blocks_8_Add_output_0_output                   (1,14,12,128) (55)    
                                                                                                     S: _blocks_blocks_9_conv_conv_0_Conv_output_0_scratch0                          
                                                                                                     S: _blocks_blocks_9_conv_conv_0_Conv_output_0_scratch1                          
                                                                                                     W: _blocks_blocks_9_conv_conv_0_Conv_output_0_weights     (128,1,1,256) (216)   
                                                                                                     W: _blocks_blocks_9_conv_conv_0_Conv_output_0_bias        (256,) (218)          
                                                                                                     W: _blocks_blocks_9_conv_conv_0_Conv_output_0_alpha       (256,1,1) (219)       
                                                                                                     O: _blocks_blocks_9_conv_conv_0_Conv_output_0_output      (1,14,12,256) (57)    
------ --------------------------------------------- ----- ---------------------- ---------- ------- --------------------------------------------------------- --------------------- 
38     _blocks_blocks_9_conv_conv_3_Conv_output_0    280   conv2d                 473344     3584    I: _blocks_blocks_9_conv_conv_0_Conv_output_0_output      (1,14,12,256) (57)    
                                                                                                     S: _blocks_blocks_9_conv_conv_3_Conv_output_0_scratch0                          
                                                                                                     S: _blocks_blocks_9_conv_conv_3_Conv_output_0_scratch1                          
                                                                                                     W: _blocks_blocks_9_conv_conv_3_Conv_output_0_weights     (256,3,3,1) (221)     
                                                                                                     W: _blocks_blocks_9_conv_conv_3_Conv_output_0_bias        (256,) (222)          
                                                                                                     W: _blocks_blocks_9_conv_conv_3_Conv_output_0_alpha       (256,1,1) (224)       
                                                                                                     O: _blocks_blocks_9_conv_conv_3_Conv_output_0_output      (1,14,12,256) (58)    
------ --------------------------------------------- ----- ---------------------- ---------- ------- --------------------------------------------------------- --------------------- 
39     _blocks_blocks_9_conv_conv_6_Conv_output_0    283   conv2d                 5505152    33280   I: _blocks_blocks_9_conv_conv_3_Conv_output_0_output      (1,14,12,256) (58)    
                                                                                                     S: _blocks_blocks_9_conv_conv_6_Conv_output_0_scratch0                          
                                                                                                     W: _blocks_blocks_9_conv_conv_6_Conv_output_0_weights     (256,1,1,128) (225)   
                                                                                                     W: _blocks_blocks_9_conv_conv_6_Conv_output_0_bias        (128,) (227)          
                                                                                                     O: _blocks_blocks_9_conv_conv_6_Conv_output_0_output      (1,14,12,128) (60)    
------ --------------------------------------------- ----- ---------------------- ---------- ------- --------------------------------------------------------- --------------------- 
40     _blocks_blocks_9_Add_output_0                 286   eltwise_integer/sum    21504      0       I: _blocks_blocks_8_Add_output_0_output                   (1,14,12,128) (55)    
                                                                                                     I: _blocks_blocks_9_conv_conv_6_Conv_output_0_output      (1,14,12,128) (60)    
                                                                                                     O: _blocks_blocks_9_Add_output_0_output                   (1,14,12,128) (61)    
------ --------------------------------------------- ----- ---------------------- ---------- ------- --------------------------------------------------------- --------------------- 
41     _blocks_blocks_10_conv_conv_0_Conv_output_0   292   conv2d                 5591296    34048   I: _blocks_blocks_9_Add_output_0_output                   (1,14,12,128) (61)    
                                                                                                     S: _blocks_blocks_10_conv_conv_0_Conv_output_0_scratch0                         
                                                                                                     S: _blocks_blocks_10_conv_conv_0_Conv_output_0_scratch1                         
                                                                                                     W: _blocks_blocks_10_conv_conv_0_Conv_output_0_weights    (128,1,1,256) (228)   
                                                                                                     W: _blocks_blocks_10_conv_conv_0_Conv_output_0_bias       (256,) (230)          
                                                                                                     W: _blocks_blocks_10_conv_conv_0_Conv_output_0_alpha      (256,1,1) (232)       
                                                                                                     O: _blocks_blocks_10_conv_conv_0_Conv_output_0_output     (1,14,12,256) (62)    
------ --------------------------------------------- ----- ---------------------- ---------- ------- --------------------------------------------------------- --------------------- 
42     _blocks_blocks_10_conv_conv_3_Conv_output_0   298   conv2d                 473344     3584    I: _blocks_blocks_10_conv_conv_0_Conv_output_0_output     (1,14,12,256) (62)    
                                                                                                     S: _blocks_blocks_10_conv_conv_3_Conv_output_0_scratch0                         
                                                                                                     S: _blocks_blocks_10_conv_conv_3_Conv_output_0_scratch1                         
                                                                                                     W: _blocks_blocks_10_conv_conv_3_Conv_output_0_weights    (256,3,3,1) (233)     
                                                                                                     W: _blocks_blocks_10_conv_conv_3_Conv_output_0_bias       (256,) (235)          
                                                                                                     W: _blocks_blocks_10_conv_conv_3_Conv_output_0_alpha      (256,1,1) (236)       
                                                                                                     O: _blocks_blocks_10_conv_conv_3_Conv_output_0_output     (1,14,12,256) (64)    
------ --------------------------------------------- ----- ---------------------- ---------- ------- --------------------------------------------------------- --------------------- 
43     _blocks_blocks_10_conv_conv_6_Conv_output_0   301   conv2d                 5505152    33280   I: _blocks_blocks_10_conv_conv_3_Conv_output_0_output     (1,14,12,256) (64)    
                                                                                                     S: _blocks_blocks_10_conv_conv_6_Conv_output_0_scratch0                         
                                                                                                     W: _blocks_blocks_10_conv_conv_6_Conv_output_0_weights    (256,1,1,128) (238)   
                                                                                                     W: _blocks_blocks_10_conv_conv_6_Conv_output_0_bias       (128,) (240)          
                                                                                                     O: _blocks_blocks_10_conv_conv_6_Conv_output_0_output     (1,14,12,128) (65)    
------ --------------------------------------------- ----- ---------------------- ---------- ------- --------------------------------------------------------- --------------------- 
44     _blocks_blocks_10_Add_output_0                304   eltwise_integer/sum    21504      0       I: _blocks_blocks_9_Add_output_0_output                   (1,14,12,128) (61)    
                                                                                                     I: _blocks_blocks_10_conv_conv_6_Conv_output_0_output     (1,14,12,128) (65)    
                                                                                                     O: _blocks_blocks_10_Add_output_0_output                  (1,14,12,128) (66)    
------ --------------------------------------------- ----- ---------------------- ---------- ------- --------------------------------------------------------- --------------------- 
45     _blocks_blocks_11_conv_conv_0_Conv_output_0   310   conv2d                 5591296    34048   I: _blocks_blocks_10_Add_output_0_output                  (1,14,12,128) (66)    
                                                                                                     S: _blocks_blocks_11_conv_conv_0_Conv_output_0_scratch0                         
                                                                                                     S: _blocks_blocks_11_conv_conv_0_Conv_output_0_scratch1                         
                                                                                                     W: _blocks_blocks_11_conv_conv_0_Conv_output_0_weights    (128,1,1,256) (241)   
                                                                                                     W: _blocks_blocks_11_conv_conv_0_Conv_output_0_bias       (256,) (243)          
                                                                                                     W: _blocks_blocks_11_conv_conv_0_Conv_output_0_alpha      (256,1,1) (244)       
                                                                                                     O: _blocks_blocks_11_conv_conv_0_Conv_output_0_output     (1,14,12,256) (68)    
------ --------------------------------------------- ----- ---------------------- ---------- ------- --------------------------------------------------------- --------------------- 
46     _blocks_blocks_11_conv_conv_3_Conv_output_0   316   conv2d                 473344     3584    I: _blocks_blocks_11_conv_conv_0_Conv_output_0_output     (1,14,12,256) (68)    
                                                                                                     S: _blocks_blocks_11_conv_conv_3_Conv_output_0_scratch0                         
                                                                                                     S: _blocks_blocks_11_conv_conv_3_Conv_output_0_scratch1                         
                                                                                                     W: _blocks_blocks_11_conv_conv_3_Conv_output_0_weights    (256,3,3,1) (246)     
                                                                                                     W: _blocks_blocks_11_conv_conv_3_Conv_output_0_bias       (256,) (247)          
                                                                                                     W: _blocks_blocks_11_conv_conv_3_Conv_output_0_alpha      (256,1,1) (249)       
                                                                                                     O: _blocks_blocks_11_conv_conv_3_Conv_output_0_output     (1,14,12,256) (69)    
------ --------------------------------------------- ----- ---------------------- ---------- ------- --------------------------------------------------------- --------------------- 
47     _blocks_blocks_11_conv_conv_6_Conv_output_0   319   conv2d                 5505152    33280   I: _blocks_blocks_11_conv_conv_3_Conv_output_0_output     (1,14,12,256) (69)    
                                                                                                     S: _blocks_blocks_11_conv_conv_6_Conv_output_0_scratch0                         
                                                                                                     W: _blocks_blocks_11_conv_conv_6_Conv_output_0_weights    (256,1,1,128) (250)   
                                                                                                     W: _blocks_blocks_11_conv_conv_6_Conv_output_0_bias       (128,) (252)          
                                                                                                     O: _blocks_blocks_11_conv_conv_6_Conv_output_0_output     (1,14,12,128) (71)    
------ --------------------------------------------- ----- ---------------------- ---------- ------- --------------------------------------------------------- --------------------- 
48     _blocks_blocks_11_Add_output_0                322   eltwise_integer/sum    21504      0       I: _blocks_blocks_10_Add_output_0_output                  (1,14,12,128) (66)    
                                                                                                     I: _blocks_blocks_11_conv_conv_6_Conv_output_0_output     (1,14,12,128) (71)    
                                                                                                     O: _blocks_blocks_11_Add_output_0_output                  (1,14,12,128) (72)    
------ --------------------------------------------- ----- ---------------------- ---------- ------- --------------------------------------------------------- --------------------- 
49     _blocks_blocks_12_conv_conv_0_Conv_output_0   328   conv2d                 11182592   68096   I: _blocks_blocks_11_Add_output_0_output                  (1,14,12,128) (72)    
                                                                                                     S: _blocks_blocks_12_conv_conv_0_Conv_output_0_scratch0                         
                                                                                                     S: _blocks_blocks_12_conv_conv_0_Conv_output_0_scratch1                         
                                                                                                     W: _blocks_blocks_12_conv_conv_0_Conv_output_0_weights    (128,1,1,512) (254)   
                                                                                                     W: _blocks_blocks_12_conv_conv_0_Conv_output_0_bias       (512,) (255)          
                                                                                                     W: _blocks_blocks_12_conv_conv_0_Conv_output_0_alpha      (512,1,1) (257)       
                                                                                                     O: _blocks_blocks_12_conv_conv_0_Conv_output_0_output     (1,14,12,512) (73)    
------ --------------------------------------------- ----- ---------------------- ---------- ------- --------------------------------------------------------- --------------------- 
50     _blocks_blocks_12_conv_conv_3_Conv_output_0   334   conv2d                 237056     7168    I: _blocks_blocks_12_conv_conv_0_Conv_output_0_output     (1,14,12,512) (73)    
                                                                                                     S: _blocks_blocks_12_conv_conv_3_Conv_output_0_scratch0                         
                                                                                                     S: _blocks_blocks_12_conv_conv_3_Conv_output_0_scratch1                         
                                                                                                     W: _blocks_blocks_12_conv_conv_3_Conv_output_0_weights    (512,3,3,1) (258)     
                                                                                                     W: _blocks_blocks_12_conv_conv_3_Conv_output_0_bias       (512,) (260)          
                                                                                                     W: _blocks_blocks_12_conv_conv_3_Conv_output_0_alpha      (512,1,1) (261)       
                                                                                                     O: _blocks_blocks_12_conv_conv_3_Conv_output_0_output     (1,7,6,512) (75)      
------ --------------------------------------------- ----- ---------------------- ---------- ------- --------------------------------------------------------- --------------------- 
51     _blocks_blocks_12_conv_conv_6_Conv_output_0   337   conv2d                 2752640    66048   I: _blocks_blocks_12_conv_conv_3_Conv_output_0_output     (1,7,6,512) (75)      
                                                                                                     S: _blocks_blocks_12_conv_conv_6_Conv_output_0_scratch0                         
                                                                                                     W: _blocks_blocks_12_conv_conv_6_Conv_output_0_weights    (512,1,1,128) (262)   
                                                                                                     W: _blocks_blocks_12_conv_conv_6_Conv_output_0_bias       (128,) (263)          
                                                                                                     O: _blocks_blocks_12_conv_conv_6_Conv_output_0_output     (1,7,6,128) (76)      
------ --------------------------------------------- ----- ---------------------- ---------- ------- --------------------------------------------------------- --------------------- 
52     _blocks_blocks_13_conv_conv_0_Conv_output_0   343   conv2d                 1398016    34048   I: _blocks_blocks_12_conv_conv_6_Conv_output_0_output     (1,7,6,128) (76)      
                                                                                                     S: _blocks_blocks_13_conv_conv_0_Conv_output_0_scratch0                         
                                                                                                     S: _blocks_blocks_13_conv_conv_0_Conv_output_0_scratch1                         
                                                                                                     W: _blocks_blocks_13_conv_conv_0_Conv_output_0_weights    (128,1,1,256) (264)   
                                                                                                     W: _blocks_blocks_13_conv_conv_0_Conv_output_0_bias       (256,) (265)          
                                                                                                     W: _blocks_blocks_13_conv_conv_0_Conv_output_0_alpha      (256,1,1) (266)       
                                                                                                     O: _blocks_blocks_13_conv_conv_0_Conv_output_0_output     (1,7,6,256) (78)      
------ --------------------------------------------- ----- ---------------------- ---------- ------- --------------------------------------------------------- --------------------- 
53     _blocks_blocks_13_conv_conv_3_Conv_output_0   349   conv2d                 118528     3584    I: _blocks_blocks_13_conv_conv_0_Conv_output_0_output     (1,7,6,256) (78)      
                                                                                                     S: _blocks_blocks_13_conv_conv_3_Conv_output_0_scratch0                         
                                                                                                     S: _blocks_blocks_13_conv_conv_3_Conv_output_0_scratch1                         
                                                                                                     W: _blocks_blocks_13_conv_conv_3_Conv_output_0_weights    (256,3,3,1) (267)     
                                                                                                     W: _blocks_blocks_13_conv_conv_3_Conv_output_0_bias       (256,) (268)          
                                                                                                     W: _blocks_blocks_13_conv_conv_3_Conv_output_0_alpha      (256,1,1) (269)       
                                                                                                     O: _blocks_blocks_13_conv_conv_3_Conv_output_0_output     (1,7,6,256) (79)      
------ --------------------------------------------- ----- ---------------------- ---------- ------- --------------------------------------------------------- --------------------- 
54     _blocks_blocks_13_conv_conv_6_Conv_output_0   352   conv2d                 1376384    33280   I: _blocks_blocks_13_conv_conv_3_Conv_output_0_output     (1,7,6,256) (79)      
                                                                                                     S: _blocks_blocks_13_conv_conv_6_Conv_output_0_scratch0                         
                                                                                                     W: _blocks_blocks_13_conv_conv_6_Conv_output_0_weights    (256,1,1,128) (270)   
                                                                                                     W: _blocks_blocks_13_conv_conv_6_Conv_output_0_bias       (128,) (271)          
                                                                                                     O: _blocks_blocks_13_conv_conv_6_Conv_output_0_output     (1,7,6,128) (80)      
------ --------------------------------------------- ----- ---------------------- ---------- ------- --------------------------------------------------------- --------------------- 
55     _blocks_blocks_13_Add_output_0                355   eltwise_integer/sum    5376       0       I: _blocks_blocks_12_conv_conv_6_Conv_output_0_output     (1,7,6,128) (76)      
                                                                                                     I: _blocks_blocks_13_conv_conv_6_Conv_output_0_output     (1,7,6,128) (80)      
                                                                                                     O: _blocks_blocks_13_Add_output_0_output                  (1,7,6,128) (82)      
------ --------------------------------------------- ----- ---------------------- ---------- ------- --------------------------------------------------------- --------------------- 
56     _blocks_blocks_14_conv_conv_0_Conv_output_0   361   conv2d                 1398016    34048   I: _blocks_blocks_13_Add_output_0_output                  (1,7,6,128) (82)      
                                                                                                     S: _blocks_blocks_14_conv_conv_0_Conv_output_0_scratch0                         
                                                                                                     S: _blocks_blocks_14_conv_conv_0_Conv_output_0_scratch1                         
                                                                                                     W: _blocks_blocks_14_conv_conv_0_Conv_output_0_weights    (128,1,1,256) (272)   
                                                                                                     W: _blocks_blocks_14_conv_conv_0_Conv_output_0_bias       (256,) (273)          
                                                                                                     W: _blocks_blocks_14_conv_conv_0_Conv_output_0_alpha      (256,1,1) (274)       
                                                                                                     O: _blocks_blocks_14_conv_conv_0_Conv_output_0_output     (1,7,6,256) (83)      
------ --------------------------------------------- ----- ---------------------- ---------- ------- --------------------------------------------------------- --------------------- 
57     _blocks_blocks_14_conv_conv_3_Conv_output_0   367   conv2d                 118528     3584    I: _blocks_blocks_14_conv_conv_0_Conv_output_0_output     (1,7,6,256) (83)      
                                                                                                     S: _blocks_blocks_14_conv_conv_3_Conv_output_0_scratch0                         
                                                                                                     S: _blocks_blocks_14_conv_conv_3_Conv_output_0_scratch1                         
                                                                                                     W: _blocks_blocks_14_conv_conv_3_Conv_output_0_weights    (256,3,3,1) (275)     
                                                                                                     W: _blocks_blocks_14_conv_conv_3_Conv_output_0_bias       (256,) (276)          
                                                                                                     W: _blocks_blocks_14_conv_conv_3_Conv_output_0_alpha      (256,1,1) (277)       
                                                                                                     O: _blocks_blocks_14_conv_conv_3_Conv_output_0_output     (1,7,6,256) (84)      
------ --------------------------------------------- ----- ---------------------- ---------- ------- --------------------------------------------------------- --------------------- 
58     _blocks_blocks_14_conv_conv_6_Conv_output_0   370   conv2d                 1376384    33280   I: _blocks_blocks_14_conv_conv_3_Conv_output_0_output     (1,7,6,256) (84)      
                                                                                                     S: _blocks_blocks_14_conv_conv_6_Conv_output_0_scratch0                         
                                                                                                     W: _blocks_blocks_14_conv_conv_6_Conv_output_0_weights    (256,1,1,128) (278)   
                                                                                                     W: _blocks_blocks_14_conv_conv_6_Conv_output_0_bias       (128,) (279)          
                                                                                                     O: _blocks_blocks_14_conv_conv_6_Conv_output_0_output     (1,7,6,128) (86)      
------ --------------------------------------------- ----- ---------------------- ---------- ------- --------------------------------------------------------- --------------------- 
59     _blocks_blocks_14_Add_output_0                373   eltwise_integer/sum    5376       0       I: _blocks_blocks_13_Add_output_0_output                  (1,7,6,128) (82)      
                                                                                                     I: _blocks_blocks_14_conv_conv_6_Conv_output_0_output     (1,7,6,128) (86)      
                                                                                                     O: _blocks_blocks_14_Add_output_0_output                  (1,7,6,128) (87)      
------ --------------------------------------------- ----- ---------------------- ---------- ------- --------------------------------------------------------- --------------------- 
60     _conv2_conv_Conv_output_0                     379   conv2d                 2796032    68096   I: _blocks_blocks_14_Add_output_0_output                  (1,7,6,128) (87)      
                                                                                                     S: _conv2_conv_Conv_output_0_scratch0                                           
                                                                                                     S: _conv2_conv_Conv_output_0_scratch1                                           
                                                                                                     W: _conv2_conv_Conv_output_0_weights                      (128,1,1,512) (0)     
                                                                                                     W: _conv2_conv_Conv_output_0_bias                         (512,) (1)            
                                                                                                     W: _conv2_conv_Conv_output_0_alpha                        (512,1,1) (3)         
                                                                                                     O: _conv2_conv_Conv_output_0_output                       (1,7,6,512) (89)      
------ --------------------------------------------- ----- ---------------------- ---------- ------- --------------------------------------------------------- --------------------- 
61     _linear7_conv_Conv_output_0                   382   conv2d                 22016      23552   I: _conv2_conv_Conv_output_0_output                       (1,7,6,512) (89)      
                                                                                                     S: _linear7_conv_Conv_output_0_scratch0                                         
                                                                                                     W: _linear7_conv_Conv_output_0_weights                    (512,7,6,1) (5)       
                                                                                                     W: _linear7_conv_Conv_output_0_bias                       (512,) (8)            
                                                                                                     O: _linear7_conv_Conv_output_0_output                     (1,1,1,512) (90)      
------ --------------------------------------------- ----- ---------------------- ---------- ------- --------------------------------------------------------- --------------------- 
62     _linear1_conv_Conv_output_0                   385   conv2d                 65664      66048   I: _linear7_conv_Conv_output_0_output                     (1,1,1,512) (90)      
                                                                                                     S: _linear1_conv_Conv_output_0_scratch0                                         
                                                                                                     W: _linear1_conv_Conv_output_0_weights                    (512,1,1,128) (10)    
                                                                                                     W: _linear1_conv_Conv_output_0_bias                       (128,) (13)           
                                                                                                     O: _linear1_conv_Conv_output_0_output                     (1,1,1,128) (91)      
------ --------------------------------------------- ----- ---------------------- ---------- ------- --------------------------------------------------------- --------------------- 



Number of operations per c-layer
------- ------ ------------------------------------------------------ ------------- ------------ --------- ---------- 
c_id    m_id   name (type)                                                      #op         type    #param   sparsity 
------- ------ ------------------------------------------------------ ------------- ------------ --------- ---------- 
0       2      input_Transpose (transpose)                                   16,128     op_s8_s8           
1       106    _conv1_conv_Conv_output_0 (conv2d)                         4,988,992   smul_s8_s8     1,856     0.0075 
2       112    _dw_conv1_conv_Conv_output_0 (conv2d)                      1,892,416   smul_s8_s8       704     0.0128 
3       118    _blocks_blocks_0_conv_conv_0_Conv_output_0 (conv2d)       22,708,352   smul_s8_s8     8,448     0.0231 
4       124    _blocks_blocks_0_conv_conv_3_Conv_output_0 (conv2d)          946,304   smul_s8_s8     1,408     0.0028 
5       127    _blocks_blocks_0_conv_conv_6_Conv_output_0 (conv2d)        5,505,088   smul_s8_s8     8,256     0.0102 
6       133    _blocks_blocks_1_conv_conv_0_Conv_output_0 (conv2d)        5,677,184   smul_s8_s8     8,448     0.0059 
7       139    _blocks_blocks_1_conv_conv_3_Conv_output_0 (conv2d)          946,304   smul_s8_s8     1,408     0.0050 
8       142    _blocks_blocks_1_conv_conv_6_Conv_output_0 (conv2d)        5,505,088   smul_s8_s8     8,256     0.0097 
9       145    _blocks_blocks_1_Add_output_0 (eltwise_integer/sum)           43,008     op_s8_s8           
10      151    _blocks_blocks_2_conv_conv_0_Conv_output_0 (conv2d)        5,677,184   smul_s8_s8     8,448     0.0091 
11      157    _blocks_blocks_2_conv_conv_3_Conv_output_0 (conv2d)          946,304   smul_s8_s8     1,408     0.0050 
12      160    _blocks_blocks_2_conv_conv_6_Conv_output_0 (conv2d)        5,505,088   smul_s8_s8     8,256     0.0092 
13      163    _blocks_blocks_2_Add_output_0 (eltwise_integer/sum)           43,008     op_s8_s8           
14      169    _blocks_blocks_3_conv_conv_0_Conv_output_0 (conv2d)        5,677,184   smul_s8_s8     8,448     0.0107 
15      175    _blocks_blocks_3_conv_conv_3_Conv_output_0 (conv2d)          946,304   smul_s8_s8     1,408     0.0071 
16      178    _blocks_blocks_3_conv_conv_6_Conv_output_0 (conv2d)        5,505,088   smul_s8_s8     8,256     0.0091 
17      181    _blocks_blocks_3_Add_output_0 (eltwise_integer/sum)           43,008     op_s8_s8           
18      187    _blocks_blocks_4_conv_conv_0_Conv_output_0 (conv2d)        5,677,184   smul_s8_s8     8,448     0.0117 
19      193    _blocks_blocks_4_conv_conv_3_Conv_output_0 (conv2d)          946,304   smul_s8_s8     1,408     0.0092 
20      196    _blocks_blocks_4_conv_conv_6_Conv_output_0 (conv2d)        5,505,088   smul_s8_s8     8,256     0.0093 
21      199    _blocks_blocks_4_Add_output_0 (eltwise_integer/sum)           43,008     op_s8_s8           
22      205    _blocks_blocks_5_conv_conv_0_Conv_output_0 (conv2d)       11,354,368   smul_s8_s8    16,896     0.0105 
23      211    _blocks_blocks_5_conv_conv_3_Conv_output_0 (conv2d)          473,344   smul_s8_s8     2,816     0.0011 
24      214    _blocks_blocks_5_conv_conv_6_Conv_output_0 (conv2d)        5,505,152   smul_s8_s8    32,896     0.0100 
25      220    _blocks_blocks_6_conv_conv_0_Conv_output_0 (conv2d)        5,591,296   smul_s8_s8    33,280     0.0094 
26      226    _blocks_blocks_6_conv_conv_3_Conv_output_0 (conv2d)          473,344   smul_s8_s8     2,816     0.0060 
27      229    _blocks_blocks_6_conv_conv_6_Conv_output_0 (conv2d)        5,505,152   smul_s8_s8    32,896     0.0102 
28      232    _blocks_blocks_6_Add_output_0 (eltwise_integer/sum)           21,504     op_s8_s8           
29      238    _blocks_blocks_7_conv_conv_0_Conv_output_0 (conv2d)        5,591,296   smul_s8_s8    33,280     0.0088 
30      244    _blocks_blocks_7_conv_conv_3_Conv_output_0 (conv2d)          473,344   smul_s8_s8     2,816     0.0064 
31      247    _blocks_blocks_7_conv_conv_6_Conv_output_0 (conv2d)        5,505,152   smul_s8_s8    32,896     0.0101 
32      250    _blocks_blocks_7_Add_output_0 (eltwise_integer/sum)           21,504     op_s8_s8           
33      256    _blocks_blocks_8_conv_conv_0_Conv_output_0 (conv2d)        5,591,296   smul_s8_s8    33,280     0.0098 
34      262    _blocks_blocks_8_conv_conv_3_Conv_output_0 (conv2d)          473,344   smul_s8_s8     2,816     0.0071 
35      265    _blocks_blocks_8_conv_conv_6_Conv_output_0 (conv2d)        5,505,152   smul_s8_s8    32,896     0.0097 
36      268    _blocks_blocks_8_Add_output_0 (eltwise_integer/sum)           21,504     op_s8_s8           
37      274    _blocks_blocks_9_conv_conv_0_Conv_output_0 (conv2d)        5,591,296   smul_s8_s8    33,280     0.0090 
38      280    _blocks_blocks_9_conv_conv_3_Conv_output_0 (conv2d)          473,344   smul_s8_s8     2,816     0.0064 
39      283    _blocks_blocks_9_conv_conv_6_Conv_output_0 (conv2d)        5,505,152   smul_s8_s8    32,896     0.0099 
40      286    _blocks_blocks_9_Add_output_0 (eltwise_integer/sum)           21,504     op_s8_s8           
41      292    _blocks_blocks_10_conv_conv_0_Conv_output_0 (conv2d)       5,591,296   smul_s8_s8    33,280     0.0085 
42      298    _blocks_blocks_10_conv_conv_3_Conv_output_0 (conv2d)         473,344   smul_s8_s8     2,816     0.0064 
43      301    _blocks_blocks_10_conv_conv_6_Conv_output_0 (conv2d)       5,505,152   smul_s8_s8    32,896     0.0100 
44      304    _blocks_blocks_10_Add_output_0 (eltwise_integer/sum)          21,504     op_s8_s8           
45      310    _blocks_blocks_11_conv_conv_0_Conv_output_0 (conv2d)       5,591,296   smul_s8_s8    33,280     0.0098 
46      316    _blocks_blocks_11_conv_conv_3_Conv_output_0 (conv2d)         473,344   smul_s8_s8     2,816     0.0078 
47      319    _blocks_blocks_11_conv_conv_6_Conv_output_0 (conv2d)       5,505,152   smul_s8_s8    32,896     0.0100 
48      322    _blocks_blocks_11_Add_output_0 (eltwise_integer/sum)          21,504     op_s8_s8           
49      328    _blocks_blocks_12_conv_conv_0_Conv_output_0 (conv2d)      11,182,592   smul_s8_s8    66,560     0.0085 
50      334    _blocks_blocks_12_conv_conv_3_Conv_output_0 (conv2d)         237,056   smul_s8_s8     5,632     0.0043 
51      337    _blocks_blocks_12_conv_conv_6_Conv_output_0 (conv2d)       2,752,640   smul_s8_s8    65,664     0.0108 
52      343    _blocks_blocks_13_conv_conv_0_Conv_output_0 (conv2d)       1,398,016   smul_s8_s8    33,280     0.0084 
53      349    _blocks_blocks_13_conv_conv_3_Conv_output_0 (conv2d)         118,528   smul_s8_s8     2,816     0.0067 
54      352    _blocks_blocks_13_conv_conv_6_Conv_output_0 (conv2d)       1,376,384   smul_s8_s8    32,896     0.0109 
55      355    _blocks_blocks_13_Add_output_0 (eltwise_integer/sum)           5,376     op_s8_s8           
56      361    _blocks_blocks_14_conv_conv_0_Conv_output_0 (conv2d)       1,398,016   smul_s8_s8    33,280     0.0092 
57      367    _blocks_blocks_14_conv_conv_3_Conv_output_0 (conv2d)         118,528   smul_s8_s8     2,816     0.0075 
58      370    _blocks_blocks_14_conv_conv_6_Conv_output_0 (conv2d)       1,376,384   smul_s8_s8    32,896     0.0104 
59      373    _blocks_blocks_14_Add_output_0 (eltwise_integer/sum)           5,376     op_s8_s8           
60      379    _conv2_conv_Conv_output_0 (conv2d)                         2,796,032   smul_s8_s8    66,560     0.0081 
61      382    _linear7_conv_Conv_output_0 (conv2d)                          22,016   smul_s8_s8    22,016     0.0291 
62      385    _linear1_conv_Conv_output_0 (conv2d)                          65,664   smul_s8_s8    65,664     0.0119 
------- ------ ------------------------------------------------------ ------------- ------------ --------- ---------- 
total                                                                   194,476,864                989,760     0.0101 

Number of operation types
---------------- ------------- ----------- 
operation type               #           % 
---------------- ------------- ----------- 
op_s8_s8               327,936        0.2% 
smul_s8_s8         194,148,928       99.8% 

Complexity report (model)
------ ---------------------------------------------- ------------------------- ------------------------- ------ 
m_id   name                                           c_macc                    c_rom                     c_id   
------ ---------------------------------------------- ------------------------- ------------------------- ------ 
106    _conv1_prelu_PRelu_output_0                    ||||               2.6%   |                  0.2%   [1]    
112    _dw_conv1_prelu_PRelu_output_0                 ||                 1.0%   |                  0.1%   [2]    
118    _blocks_blocks_0_conv_conv_2_PRelu_output_0    ||||||||||||||||  11.7%   ||                 0.9%   [3]    
124    _blocks_blocks_0_conv_conv_5_PRelu_output_0    |                  0.5%   |                  0.2%   [4]    
127    _blocks_blocks_0_conv_conv_6_Conv_output_0     ||||               2.8%   ||                 0.8%   [5]    
133    _blocks_blocks_1_conv_conv_2_PRelu_output_0    ||||               2.9%   ||                 0.9%   [6]    
139    _blocks_blocks_1_conv_conv_5_PRelu_output_0    |                  0.5%   |                  0.2%   [7]    
142    _blocks_blocks_1_conv_conv_6_Conv_output_0     ||||               2.8%   ||                 0.8%   [8]    
145    _blocks_blocks_1_Add_output_0                  |                  0.0%   |                  0.0%   [9]    
151    _blocks_blocks_2_conv_conv_2_PRelu_output_0    ||||               2.9%   ||                 0.9%   [10]   
157    _blocks_blocks_2_conv_conv_5_PRelu_output_0    |                  0.5%   |                  0.2%   [11]   
160    _blocks_blocks_2_conv_conv_6_Conv_output_0     ||||               2.8%   ||                 0.8%   [12]   
163    _blocks_blocks_2_Add_output_0                  |                  0.0%   |                  0.0%   [13]   
169    _blocks_blocks_3_conv_conv_2_PRelu_output_0    ||||               2.9%   ||                 0.9%   [14]   
175    _blocks_blocks_3_conv_conv_5_PRelu_output_0    |                  0.5%   |                  0.2%   [15]   
178    _blocks_blocks_3_conv_conv_6_Conv_output_0     ||||               2.8%   ||                 0.8%   [16]   
181    _blocks_blocks_3_Add_output_0                  |                  0.0%   |                  0.0%   [17]   
187    _blocks_blocks_4_conv_conv_2_PRelu_output_0    ||||               2.9%   ||                 0.9%   [18]   
193    _blocks_blocks_4_conv_conv_5_PRelu_output_0    |                  0.5%   |                  0.2%   [19]   
196    _blocks_blocks_4_conv_conv_6_Conv_output_0     ||||               2.8%   ||                 0.8%   [20]   
199    _blocks_blocks_4_Add_output_0                  |                  0.0%   |                  0.0%   [21]   
205    _blocks_blocks_5_conv_conv_2_PRelu_output_0    ||||||||           5.8%   ||||               1.7%   [22]   
211    _blocks_blocks_5_conv_conv_5_PRelu_output_0    |                  0.2%   |                  0.4%   [23]   
214    _blocks_blocks_5_conv_conv_6_Conv_output_0     ||||               2.8%   ||||||||           3.3%   [24]   
220    _blocks_blocks_6_conv_conv_2_PRelu_output_0    ||||               2.9%   ||||||||           3.3%   [25]   
226    _blocks_blocks_6_conv_conv_5_PRelu_output_0    |                  0.2%   |                  0.4%   [26]   
229    _blocks_blocks_6_conv_conv_6_Conv_output_0     ||||               2.8%   ||||||||           3.3%   [27]   
232    _blocks_blocks_6_Add_output_0                  |                  0.0%   |                  0.0%   [28]   
238    _blocks_blocks_7_conv_conv_2_PRelu_output_0    ||||               2.9%   ||||||||           3.3%   [29]   
244    _blocks_blocks_7_conv_conv_5_PRelu_output_0    |                  0.2%   |                  0.4%   [30]   
247    _blocks_blocks_7_conv_conv_6_Conv_output_0     ||||               2.8%   ||||||||           3.3%   [31]   
250    _blocks_blocks_7_Add_output_0                  |                  0.0%   |                  0.0%   [32]   
256    _blocks_blocks_8_conv_conv_2_PRelu_output_0    ||||               2.9%   ||||||||           3.3%   [33]   
262    _blocks_blocks_8_conv_conv_5_PRelu_output_0    |                  0.2%   |                  0.4%   [34]   
265    _blocks_blocks_8_conv_conv_6_Conv_output_0     ||||               2.8%   ||||||||           3.3%   [35]   
268    _blocks_blocks_8_Add_output_0                  |                  0.0%   |                  0.0%   [36]   
274    _blocks_blocks_9_conv_conv_2_PRelu_output_0    ||||               2.9%   ||||||||           3.3%   [37]   
280    _blocks_blocks_9_conv_conv_5_PRelu_output_0    |                  0.2%   |                  0.4%   [38]   
283    _blocks_blocks_9_conv_conv_6_Conv_output_0     ||||               2.8%   ||||||||           3.3%   [39]   
286    _blocks_blocks_9_Add_output_0                  |                  0.0%   |                  0.0%   [40]   
292    _blocks_blocks_10_conv_conv_2_PRelu_output_0   ||||               2.9%   ||||||||           3.3%   [41]   
298    _blocks_blocks_10_conv_conv_5_PRelu_output_0   |                  0.2%   |                  0.4%   [42]   
301    _blocks_blocks_10_conv_conv_6_Conv_output_0    ||||               2.8%   ||||||||           3.3%   [43]   
304    _blocks_blocks_10_Add_output_0                 |                  0.0%   |                  0.0%   [44]   
310    _blocks_blocks_11_conv_conv_2_PRelu_output_0   ||||               2.9%   ||||||||           3.3%   [45]   
316    _blocks_blocks_11_conv_conv_5_PRelu_output_0   |                  0.2%   |                  0.4%   [46]   
319    _blocks_blocks_11_conv_conv_6_Conv_output_0    ||||               2.8%   ||||||||           3.3%   [47]   
322    _blocks_blocks_11_Add_output_0                 |                  0.0%   |                  0.0%   [48]   
328    _blocks_blocks_12_conv_conv_2_PRelu_output_0   ||||||||           5.8%   ||||||||||||||||   6.7%   [49]   
334    _blocks_blocks_12_conv_conv_5_PRelu_output_0   |                  0.1%   ||                 0.7%   [50]   
337    _blocks_blocks_12_conv_conv_6_Conv_output_0    ||                 1.4%   |||||||||||||||    6.5%   [51]   
343    _blocks_blocks_13_conv_conv_2_PRelu_output_0   |                  0.7%   ||||||||           3.3%   [52]   
349    _blocks_blocks_13_conv_conv_5_PRelu_output_0   |                  0.1%   |                  0.4%   [53]   
352    _blocks_blocks_13_conv_conv_6_Conv_output_0    |                  0.7%   ||||||||           3.3%   [54]   
355    _blocks_blocks_13_Add_output_0                 |                  0.0%   |                  0.0%   [55]   
361    _blocks_blocks_14_conv_conv_2_PRelu_output_0   |                  0.7%   ||||||||           3.3%   [56]   
367    _blocks_blocks_14_conv_conv_5_PRelu_output_0   |                  0.1%   |                  0.4%   [57]   
370    _blocks_blocks_14_conv_conv_6_Conv_output_0    |                  0.7%   ||||||||           3.3%   [58]   
373    _blocks_blocks_14_Add_output_0                 |                  0.0%   |                  0.0%   [59]   
379    _conv2_prelu_PRelu_output_0                    ||                 1.4%   ||||||||||||||||   6.7%   [60]   
382    _linear7_conv_Conv_output_0                    |                  0.0%   ||||||             2.3%   [61]   
385    _linear1_conv_Conv_output_0                    |                  0.0%   |||||||||||||||    6.5%   [62]   
------ ---------------------------------------------- ------------------------- ------------------------- ------ 
macc=194,476,864 weights=1,019,136 act=353,408 ram_io=0

Generated files (7)
-------------------------------------------------------------------- 
C:\Users\19178\.stm32cubemx\network_output\network_1_config.h        
C:\Users\19178\.stm32cubemx\network_output\network_1.h               
C:\Users\19178\.stm32cubemx\network_output\network_1.c               
C:\Users\19178\.stm32cubemx\network_output\network_1_data_params.h   
C:\Users\19178\.stm32cubemx\network_output\network_1_data_params.c   
C:\Users\19178\.stm32cubemx\network_output\network_1_data.h          
C:\Users\19178\.stm32cubemx\network_output\network_1_data.c          
